net/DQN.pth (torch, 546711 bytes, 6 tensors)

fc1.weight f4 [256, 256]
0	0xbc396db5	-0.01131766
1	0xbbfc8d27	-0.0077072564
2	0xbcc00070	-0.023437709
3	0x3c10545a	0.0088091735
4	0xbd29460c	-0.041326568
5	0xbc857d15	-0.016294995
6	0x3c98dae0	0.018659055
7	0x3d5978a1	0.053093556
8	0x3c160dfe	0.009158609
9	0xbcdb55c4	-0.026774295
10	0x39e0626b	0.00042797936
11	0xbc4e0590	-0.012574568
12	0x3ca365fd	0.019946093
13	0x3acfeb17	0.0015862909
14	0x3c8bd237	0.017068012
15	0x3d627ae1	0.055292968
16	0xbd011be2	-0.03152073
17	0xbba37f7c	-0.0049895626
18	0x3b752a53	0.003740926
19	0xbc7b8f80	-0.015354037
20	0xbb1b6cc2	-0.0023715948
21	0xbd668eba	-0.05628846
22	0xbd84527f	-0.064610474
23	0xbd665d38	-0.056241244
24	0xbd8bcc13	-0.068260334
25	0xbd6e6cea	-0.058209337
26	0xbd5f3660	-0.054495215
27	0xbd66e550	-0.056371033
28	0xbd868e58	-0.06570119
29	0x3ce071e8	0.027398065
30	0x3cffd51a	0.031229544
31	0x3d2cfc42	0.04223276
32	0x3ce551fc	0.027993195
33	0x3c80a7e4	0.015705056
34	0x3c563e94	0.013076443
35	0xbd2af3bf	-0.04173636
36	0x3d667d66	0.056271933
37	0xbc21e0c0	-0.009880245
38	0x3d5ce09a	0.053925134
39	0x3c5eabb1	0.013590739
40	0x3d48601a	0.048919775
41	0x3d35654f	0.04428607
42	0xbc55f338	-0.013058476
43	0xbcc28b42	-0.023748044
44	0x3c1a1468	0.009404279
45	0xbc06c7a2	-0.008226307
46	0x3b6d2944	0.0036187926
47	0x3cf1779f	0.029475985
48	0xbd5ed779	-0.05440471
49	0x3b2df4d8	0.0026543643
50	0xbd5fb805	-0.054618854
51	0x3d87b33b	0.066259824
52	0xbd340bc2	-0.043956526
53	0x3c813135	0.015770534
54	0xbc8be370	-0.017076224
55	0x3d061a8f	0.032740172
56	0x3b4a10d3	0.0030832782
57	0xbc3275dd	-0.010892359
58	0x3d3b609a	0.045746423
59	0x3d70d145	0.058793325
60	0xbd3f07d8	-0.04663834
61	0xbd85075d	-0.06495545
62	0x3baaaf80	0.0052089095
63	0x3bad5e1f	0.005290761
64	0x3be0e109	0.006862764
65	0x3d314b06	0.04328444
66	0x3c8f2154	0.017471947
67	0xbd1b32d0	-0.037890255
68	0xbd6a7d70	-0.057248533
69	0x3d288155	0.041138966
70	0x3d57c2c6	0.052675985
71	0xbd15c398	-0.036563486
72	0xbd41f241	-0.047350172
73	0x3c86d0fd	0.016457075
74	0xbd4de7ef	-0.050270017
75	0xbca86f4c	-0.020560883
76	0xbd7d34a4	-0.06181778
77	0x3c395905	0.011312728
78	0xbcdc78a0	-0.026912987
79	0xbd269d5a	-0.040677406
80	0xbd22c9be	-0.039743178
81	0xbcb3bca3	-0.021940535
82	0x3ccfa7f6	0.025348645
83	0xbc0210a4	-0.007938538
84	0x3d585cd8	0.052822918
85	0xbce4a06c	-0.027908526
86	0xbc95d5ec	-0.018290482
87	0x3d63c0e7	0.055603888
88	0xbd7768aa	-0.06040255
89	0xbcf69da2	-0.030104462
90	0xbd35b14f	-0.044358548
91	0x3d651f71	0.055938188
92	0x3d07c9bd	0.033151377
93	0xbcfb7f05	-0.030700216
94	0xbd0417e3	-0.032249343
95	0x3be0c050	0.006858863
96	0xbcc7898a	-0.024357576
97	0x3c5fee62	0.013667675
98	0xbd3aa427	-0.045566704
99	0xbd2af2bc	-0.041735396
100	0xbacd00c0	-0.0015640482
101	0x3ceda385	0.029008636
102	0x3d5a09ec	0.05323212
103	0x3bf97197	0.007612418
104	0xbd180a2c	-0.037119076
105	0x3ccbfa1b	0.024899533
106	0x3cc7982c	0.024364553
107	0x3cad43cd	0.021150494
108	0xbcaab3d0	-0.020837694
109	0xbc70bcea	-0.014693478
110	0x3cec4780	0.028842688
111	0x3c98aea5	0.018637965
112	0x3d2a0bec	0.041515276
113	0xbd2d2498	-0.042271227
114	0x3d20bfe2	0.039245494
115	0xbcc726c4	-0.024310477
116	0xbacda500	-0.0015689433
117	0xbd0f4e79	-0.034986947
118	0xbcc56891	-0.024097713
119	0x3d162b0b	0.036662143
120	0x3d43e26e	0.047823362
121	0x3c84aa73	0.016194558
122	0xbd5dbbd8	-0.05413422
123	0xbcea73cb	-0.028619668
124	0x3d1ac4ab	0.037785213
125	0xbcb7c298	-0.022431657
126	0xbd67f0e2	-0.056626208
127	0x3c1293da	0.008946383
128	0xbd55a6a4	-0.052160874
129	0xb9c58000	-0.00037670135
130	0xbbfbc6e0	-0.00768362
131	0x3a1d0b80	0.00059907883
132	0xbc73cfe8	-0.014881112
133	0xbc15a718	-0.009134077
134	0xbd1ac1e0	-0.03778255
135	0xbd290558	-0.04126486
136	0x3ca81548	0.02051796
137	0x3d66ece0	0.056378245
138	0xbd4c83e4	-0.04993047
139	0xbd71a79a	-0.058997728
140	0xbd0a7762	-0.03380526
141	0x3d75b9e6	0.05999174
142	0x3d520d6d	0.051282335
143	0xbd68662f	-0.056738075
144	0x3c7861a8	0.015160002
145	0x3b884f3e	0.004159837
146	0x3d5e1295	0.05421694
147	0xbc747b6e	-0.014922006
148	0x3cee9bf7	0.029127104
149	0xbce094ea	-0.027414758
150	0xbd80efed	-0.06295762
151	0x3be5d510	0.0070139244
152	0xbd239a6d	-0.039942194
153	0xbb806300	-0.0039180517
154	0xbcb6e985	-0.022328148
155	0xbd4f0f4c	-0.050551698
156	0x3cdde4c3	0.027086621
157	0x3d30cbe4	0.043163195
158	0x3d1d5afa	0.03841684
159	0x3c04e688	0.008111604
160	0xbd580b07	-0.05274489
161	0xbd5c4c70	-0.053783834
162	0xbc549daf	-0.012977048
163	0xbc39c683	-0.011338833
164	0xbd685ac2	-0.05672718
165	0x3d1eaaca	0.038737096
166	0xbd3ede6e	-0.046598844
167	0xbae61000	-0.0017552376
168	0xbd743218	-0.059618086
169	0x3c8fc5f0	0.017550439
170	0x3999a600	0.00029306114
171	0x3d3115fc	0.043233857
172	0x3c2c10b0	0.0105020255
173	0xbd49e340	-0.049288988
174	0x3d509dbd	0.05093168
175	0xbd6569e6	-0.056009196
176	0x3cf5c6f8	0.030002102
177	0xbd269049	-0.040664945
178	0x3d0a22c6	0.03372457
179	0x3c5e6811	0.013574616
180	0x3c891148	0.016731873
181	0xbc35356c	-0.0110601
182	0x3d699dec	0.05703537
183	0x3d83d0ec	0.06436333
184	0xbb7952db	-0.003804377
185	0xbc86bc28	-0.016447142
186	0x3c1f2180	0.009712577
187	0x3d15aaee	0.036539964
188	0x3d6ef02a	0.058334507
189	0x3d7feb07	0.06248
190	0x3cee072c	0.029056154
191	0x3a67891f	0.00088323833
192	0xbd50793b	-0.050896864
193	0xbd5d1612	-0.053976126
194	0x3d13298c	0.035928294
195	0xbd8049d4	-0.062640816
196	0xbc152a4f	-0.009104325
197	0x3d3b8921	0.045785073
198	0xbd71916b	-0.058976572
199	0xbd4608cb	-0.04834823
200	0xbd897341	-0.06711436
201	0x3d059698	0.03261432
202	0x3c5f070b	0.013612519
203	0x3d15e3d6	0.036594234
204	0xbc096ac0	-0.008387268
205	0xbd03d5cb	-0.03218631
206	0x3d661956	0.056176506
207	0xbd1ff6de	-0.03905379
208	0xbd245d4c	-0.040128037
209	0x3d399d4e	0.045316033
210	0x3d5d147c	0.053974614
211	0xbce3620d	-0.027756715
212	0xbd74ed70	-0.05979675
213	0x3b483380	0.0030548275
214	0xb9fb0100	-0.00047875196
215	0x3c984db4	0.01859174
216	0x3d139bf9	0.03603742
217	0x3be347b0	0.006936036
218	0xbd33a980	-0.04386282
219	0x3b56cee5	0.0032777127
220	0x3d02f5e5	0.031972785
221	0x3b7ada2f	0.003827702
222	0xbd1691f5	-0.03676029
223	0xbc161c09	-0.009161958
224	0x391641dc	0.0001432965
225	0xbccb6675	-0.024829129
226	0x3ceba18d	0.028763557
227	0x3cc381b4	0.023865558
228	0x3d5835ae	0.052785568
229	0x3d476e89	0.0486894
230	0xbb1cbc80	-0.0023916066
231	0xbd5e5728	-0.054282337
232	0x3ca8456c	0.020540915
233	0x3ce7af5f	0.028281866
234	0x3d192612	0.037389822
235	0x3cf75ebe	0.030196544
236	0x3d0b212c	0.033967182
237	0x3c675b9b	0.014120962
238	0x3b88f030	0.004179023
239	0x3d0bc11c	0.03411971
240	0xbd7d7698	-0.061880678
241	0x3ce97d8e	0.028502252
242	0x3c8e5b10	0.017377406
243	0x3c886278	0.016648516
244	0xbc8e28e8	-0.01735349
245	0x3c930fb8	0.017951831
246	0x3c728bc0	0.014803827
247	0xbd846ab1	-0.06465662
248	0xbcf09ad8	-0.02937071
249	0x3cff7c78	0.031187281
250	0xbd45d50f	-0.04829889
251	0xbcb5dbf8	-0.022199616
252	0x3d14df82	0.036345966
253	0x3d036bf4	0.032085374
254	0xbd46301e	-0.048385732
255	0x3ce36f98	0.027763173

fc1.bias f4 [256]
0	0x3d1f5480	0.038898945
1	0xbae0fbe6	-0.0017164915
2	0xbd3651b1	-0.0445115
3	0x3d2eb051	0.042648617
4	0x3bda23a4	0.0066570807
5	0x3d8fe3e0	0.070258856
6	0x3d23df6b	0.04000799
7	0x3cd7cc58	0.026342556
8	0xbc507938	-0.012724213
9	0xbd4693cb	-0.04848079
10	0xbd2d3704	-0.042288795
11	0x3cc5e0d2	0.024155054
12	0xb9e79c14	-0.0004417604
13	0xbd1ddb59	-0.038539264
14	0xbd776903	-0.06040288
15	0x3ba2c821	0.004967705
16	0x3d029258	0.031877846
17	0xbc4beefa	-0.012447113
18	0x3d0b5e9a	0.034025766
19	0x3d3b9a4e	0.045801453
20	0x3cb75639	0.022379981
21	0x3be128ac	0.0068713035
22	0x3d05202a	0.032501377
23	0x3d401d22	0.046902783
24	0x3d161191	0.036637846
25	0x3b3b65dd	0.002859465
26	0xbd03aaf6	-0.032145463
27	0xbb46d040	-0.003033653
28	0x3cf1d309	0.029519575
29	0xbd71057e	-0.05884313
30	0xbcbd61d6	-0.02311794
31	0x3cfee9be	0.031117316
32	0xbd0d2e7b	-0.034468155
33	0x3d1a8743	0.037726652
34	0x3d57d70f	0.05269533
35	0x3ae88c2c	0.001774197
36	0xbd0e7dcc	-0.034787938
37	0x3d1d35ea	0.038381495
38	0x3cb82e54	0.022483028
39	0x39e7e500	0.00044230372
40	0xbd8c61be	-0.0685458
41	0x3c8f8251	0.017518194
42	0xbd033cdc	-0.032040462
43	0x3cdd9058	0.027046368
44	0x3cb2eeab	0.021842321
45	0xbd078824	-0.03308882
46	0xbd0b10d8	-0.03395161
47	0xbd2c56d9	-0.042075012
48	0x3d4d3ecd	0.05010872
49	0xbd3b7324	-0.045764104
50	0xbc1fee06	-0.009761339
51	0xbd648ea8	-0.05580011
52	0xbd317788	-0.043326885
53	0xba13544a	-0.0005620165
54	0xbd51dd5d	-0.0512365
55	0xbcea3253	-0.02858845
56	0xbd00bfc8	-0.031432897
57	0xbd8292ff	-0.063756935
58	0x3d2fbd6a	0.04290525
59	0xba70901d	-0.0009176748
60	0x3d4cfe0d	0.05004697
61	0x3c14aa46	0.0090737995
62	0xbd58cd44	-0.05293013
63	0x3c97cc4c	0.018530034
64	0x3d0df354	0.034655884
65	0xbcbe6ab1	-0.023244234
66	0x3a978757	0.001156072
67	0xba89e920	-0.0010521747
68	0xbcbd19f9	-0.023083674
69	0xbd6d8e72	-0.057997175
70	0x3ca6e489	0.020372646
71	0x3d19882c	0.03748338
72	0xbd5f05da	-0.05444894
73	0x3d40f47e	0.047108166
74	0xbc9a7fe0	-0.018859804
75	0x3d0ce682	0.034399517
76	0x3d3d3549	0.046193395
77	0xbd15678e	-0.03647571
78	0x3d1649b9	0.0366914
79	0x3c30c8be	0.010790048
80	0xbc5bac5f	-0.013407796
81	0xbd3a1d35	-0.04543801
82	0x3d1cb019	0.038253877
83	0x3d2421d9	0.040071342
84	0x3d2aa222	0.04165853
85	0xbdb34b76	-0.087546274
86	0xbcaf6bac	-0.021413647
87	0x3c4c2c43	0.012461725
88	0xbc5de6d9	-0.013543808
89	0x3d0e591a	0.034752943
90	0xbd2a0d3a	-0.04151652
91	0xbd13b79d	-0.03606378
92	0x3d6f9cd3	0.05849917
93	0x3cb0642f	0.021532146
94	0xbd6a16aa	-0.05715052
95	0x3c2ed808	0.010671623
96	0xbd2693db	-0.04066835
97	0x3c3bd2ff	0.01146388
98	0xbd513f2e	-0.051085643
99	0xbd33958e	-0.0438438
100	0xbd306e4c	-0.043073937
101	0x3d078173	0.033082437
102	0x3d36787b	0.044548493
103	0x3be057be	0.006846397
104	0x3b787c4f	0.003791589
105	0xbd442f4a	-0.04789666
106	0xbd19d61a	-0.0375577
107	0x3d080415	0.033207018
108	0x3af9c08b	0.0019054575
109	0x3d30c875	0.04315992
110	0xbd3e60dd	-0.046479095
111	0x3aff62c7	0.0019484394
112	0x3b878c31	0.004136585
113	0x3d3ae007	0.045623805
114	0x3da63256	0.081150696
115	0x3d1b2faa	0.037887253
116	0xbd1b7e48	-0.037962228
117	0xbd72e0f8	-0.05929658
118	0xbd4ad264	-0.04951705
119	0x3cf0bfc9	0.029388325
120	0xbd40723b	-0.04698394
121	0xbb271697	-0.0025495642
122	0x3cfc462d	0.030795181
123	0x3d116838	0.03549978
124	0x3cf8129a	0.030282307
125	0xbc7693ff	-0.015049933
126	0x3daa3e68	0.08312684
127	0xbd43b260	-0.047777534
128	0x3d5e4e20	0.054273725
129	0x3c50a25f	0.012734025
130	0x3d10aa70	0.035318792
131	0xbd33ed5f	-0.043927547
132	0xbd185eb3	-0.037199687
133	0x3d0e3c2c	0.034725353
134	0xbc312152	-0.010811167
135	0x3d3a3df1	0.04546923
136	0x3d74331c	0.059619054
137	0xbd055677	-0.032553162
138	0xbcc4e82d	-0.024036491
139	0x3b831e69	0.004001428
140	0xbcbc49d0	-0.022984415
141	0xbcfc34d6	-0.030786913
142	0xba2372c1	-0.0006235056
143	0x3d2a231c	0.04153739
144	0xbd124b0b	-0.035716098
145	0x3c498d58	0.012301765
146	0x3d2294d9	0.039692733
147	0x3d1bf62d	0.03807657
148	0x3d54995a	0.05190406
149	0x3a1fd4e9	0.0006097095
150	0x3d130e41	0.035902265
151	0x3c053cee	0.008132203
152	0x3c57da79	0.0131746465
153	0xbae76c66	-0.0017656207
154	0xbd76e3f8	-0.060276
155	0xbd683b5d	-0.05669724
156	0x3d503442	0.050831087
157	0x3cb4e1d5	0.022080341
158	0xbd43812c	-0.04773061
159	0xbcd92566	-0.02650709
160	0xbc99636e	-0.01872417
161	0xbc344fb6	-0.011005333
162	0xbd200cb6	-0.039074622
163	0xbd8ad09d	-0.06778071
164	0x3d4a2b6d	0.04935782
165	0xbbe0e9fe	-0.0068638315
166	0xbbe123b6	-0.006870712
167	0xbcbb220d	-0.022843385
168	0xbb974fcc	-0.004617667
169	0xbd0dc4c6	-0.034611486
170	0x3c45fe1f	0.012084513
171	0xbd2f143d	-0.04274391
172	0x3d31decc	0.043425366
173	0xbce1525b	-0.02750509
174	0x3cdb997d	0.026806587
175	0xbbbdeb29	-0.0057958555
176	0xbca76c8c	-0.020437501
177	0x3d152b3c	0.036418185
178	0xbd159e3b	-0.036527853
179	0x399cda82	0.0002991744
180	0x3cdfa0e4	0.027298398
181	0xbd299e95	-0.041411
182	0xbcb0ba56	-0.021573227
183	0x3d9f9396	0.07791822
184	0xbbc36030	-0.005962394
185	0xbd8060c8	-0.062684596
186	0xbcc4f1ed	-0.02404114
187	0xbd523bb8	-0.051326483
188	0xbd037b1c	-0.032099828
189	0xbb6507b4	-0.0034947218
190	0xbd003c19	-0.031307314
191	0x3c4e064b	0.012574743
192	0xbc000b73	-0.00781523
193	0x3c496a35	0.012293388
194	0xbd80cadd	-0.06288693
195	0x3cc4795d	0.023983652
196	0xbd8e4145	-0.06946043
197	0xbd655fa0	-0.0559994
198	0x3bff89c2	0.0077984044
199	0xbcf4dc90	-0.029890329
200	0xbb440a53	-0.002991338
201	0x3baa4d6a	0.0051972168
202	0xbd4ce0c7	-0.050019052
203	0x3c4490e1	0.011997432
204	0x3b34cad8	0.0027586725
205	0xbcf6b8a4	-0.03011734
206	0xbbd49ec4	-0.006488653
207	0x3d4168fe	0.04721927
208	0xbd103628	-0.035207897
209	0x3ca58f23	0.020209854
210	0x3b082a69	0.0020777232
211	0x3c0cfa00	0.0086045265
212	0xbce3703e	-0.027763482
213	0xbd02c8f3	-0.03192992
214	0x3baef112	0.0053387964
215	0xbd7c9a00	-0.061670303
216	0x3b6a4411	0.0035746137
217	0x3d179331	0.037005607
218	0xbcfe69c2	-0.031056289
219	0x3d5426fa	0.051794983
220	0xbca7bb58	-0.020475075
221	0x3d6244b7	0.055241313
222	0xbd27f403	-0.041004192
223	0x3bcbfb93	0.0062250583
224	0xbc85bf07	-0.01632644
225	0xbd632d86	-0.055463336
226	0xbd861912	-0.065477505
227	0x3c0e74a4	0.0086948015
228	0x3c935ca0	0.017988503
229	0x3c7f140f	0.015568747
230	0x3c9d4782	0.019199137
231	0xbcc4b3b5	-0.024011472
232	0x3bf7f25f	0.0075667347
233	0xbc8df1a5	-0.01732714
234	0x3b33a29b	0.0027410153
235	0x3cac9bef	0.021070449
236	0xbc8c8592	-0.017153535
237	0xbd232a19	-0.03983507
238	0xbd1347c0	-0.035957098
239	0xba49ce80	-0.00076983124
240	0x3d24f463	0.040272128
241	0xbc99441a	-0.018709231
242	0xbc36a186	-0.011146909
243	0xbd3e1a31	-0.046411697
244	0x3d05febc	0.032713637
245	0xbca79cab	-0.020460447
246	0x3cf129cb	0.029438874
247	0x3d073e3c	0.033018336
248	0xbd37a795	-0.044837553
249	0xbd532315	-0.05154713
250	0xbcf863fc	-0.030321114
251	0xbd1d3b6e	-0.038386755
252	0xbce469d8	-0.027882501
253	0xbd2cff78	-0.04223582
254	0x3cc994d4	0.0246071
255	0xbc0de188	-0.008659728

fc2.weight f4 [256, 256]
0	0x3d2a8ddb	0.04163919
1	0xbd37a260	-0.044832587
2	0xbd206833	-0.039161872
3	0xbd63fe78	-0.055662602
4	0x3c3d9c2b	0.011572878
5	0xbcb9c918	-0.022678897
6	0xbd0081d3	-0.03137381
7	0x3d6cf18c	0.057847545
8	0x3c81b5d4	0.015833773
9	0xbd81633a	-0.06317754
10	0x3d1f7367	0.038928416
11	0xbe04ac13	-0.12956266
12	0x3b1d77ca	0.0024027699
13	0x3d9d3767	0.07676583
14	0x3d02e4eb	0.031956594
15	0x3d565e5a	0.052336074
16	0x3df927a2	0.121657625
17	0xbd819d11	-0.06328786
18	0x3e79c1eb	0.2439038
19	0xbc7c6ae9	-0.015406349
20	0xbd36d711	-0.044638697
21	0xbcd532e4	-0.026025243
22	0x3dcbcf62	0.099516645
23	0xbd1d67aa	-0.03842894
24	0xbd39ead4	-0.045389965
25	0xbdab5610	-0.083660245
26	0xbcb76219	-0.022385644
27	0xbce37348	-0.027764931
28	0xbd37a535	-0.044835288
29	0xbd4aeb21	-0.049540643
30	0xbd1f2215	-0.038850863
31	0x3d2b5abc	0.041834578
32	0xbcb7efab	-0.02245315
33	0x3e33fe56	0.1757749
34	0x3c1a47ed	0.0094165625
35	0x3d517314	0.051135138
36	0xbd564012	-0.052307196
37	0x3d03fe24	0.03222479
38	0xbd1356ad	-0.035971332
39	0xbd5dd7a0	-0.054160714
40	0xbd99aa50	-0.07503188
41	0xbcd4e5b1	-0.025988432
42	0xbd8a64ff	-0.06757545
43	0xbcaa0e16	-0.02075867
44	0xbc3062b8	-0.010765724
45	0xbd788787	-0.060676124
46	0xbe065847	-0.13119613
47	0xbc4ac734	-0.012376595
48	0x3d5c11f2	0.05372805
49	0x3c5c1904	0.013433699
50	0xbd330d34	-0.043713763
51	0x3c6cf6a8	0.014463104
52	0xbd625adf	-0.055262443
53	0xbcc8a94c	-0.02449479
54	0xbd6b84ac	-0.057499573
55	0x3c55bab0	0.013044998
56	0x3d65d137	0.056107726
57	0xbd8f120d	-0.06985865
58	0xbd2a70de	-0.041611545
59	0x3d6a2d40	0.05717206
60	0x3e8548ec	0.26032197
61	0x3d8e2961	0.06941486
62	0x3da98ad1	0.0827843
63	0x3d0c142e	0.034198932
64	0x3c6584d8	0.014008723
65	0x3d04d532	0.03242988
66	0xba2d6eb1	-0.00066159206
67	0xbd20a6d4	-0.0392216
68	0x3c9b34f1	0.018946143
69	0x3d31ed54	0.043439224
70	0x3cf074a5	0.029352495
71	0xbd008d96	-0.031385027
72	0x3c7eca40	0.01555115
73	0x3de61283	0.112339996
74	0x3c9beb02	0.019032959
75	0x3c7fc468	0.015610792
76	0xbc1e2816	-0.009653112
77	0x3ca3027b	0.019898644
78	0xbd207ce2	-0.039181598
79	0xbbe0a751	-0.006855883
80	0xbdc0a58a	-0.09406574
81	0xbc93873c	-0.01800882
82	0xbd76848e	-0.060185008
83	0x3d516de0	0.051130176
84	0x3c8ed260	0.017434299
85	0xbc1061a0	-0.008812338
86	0x3d181886	0.037132762
87	0xbe4dd1a1	-0.20099498
88	0x3d0e60db	0.034760337
89	0xbdb9e580	-0.09076977
90	0xbd72057a	-0.059087254
91	0xbea930a4	-0.33044922
92	0xbd640119	-0.05566511
93	0xbd46ff77	-0.048583474
94	0xbd220cae	-0.039562874
95	0x3de27cd0	0.11058962
96	0x3a7c01b6	0.0009613292
97	0xbce08e31	-0.027411552
98	0xbdae7001	-0.08517457
99	0x3becd003	0.0072269454
100	0xb9ff1800	-0.00048655272
101	0x3de6588c	0.11247358
102	0x3b65acc9	0.0035045615
103	0x3d7c8031	0.06164569
104	0x3e0962af	0.13416551
105	0x3d56d69b	0.052450757
106	0x3d37295a	0.04471717
107	0x3ca8eff6	0.020622235
108	0xbbc3f480	-0.0059800744
109	0xbd4fb62b	-0.05071084
110	0x3d42bbb7	0.0475423
111	0x3d0b2b17	0.03397664
112	0xbd6b472f	-0.057440933
113	0x3d3c4659	0.045965526
114	0xbd9e9ab5	-0.07744352
115	0xbca811c9	-0.020516293
116	0x3d71db74	0.059047177
117	0xbd1d6c90	-0.03843361
118	0xbc7cd186	-0.015430814
119	0x3a0a6019	0.0005278602
120	0xbe073cb5	-0.13206752
121	0xbd98782b	-0.07444795
122	0xbcc4b3e0	-0.024011552
123	0xbd5578a6	-0.052117012
124	0x3d71d2fc	0.0590391
125	0x3e171dd8	0.14757478
126	0x3d491931	0.04909629
127	0xbc8ab7a3	-0.016933268
128	0x3a98d06d	0.0011658795
129	0x3cd79900	0.026318073
130	0x3c99a880	0.018757105
131	0xbc0f30a8	-0.008739628
132	0xbd6a6f06	-0.057234786
133	0x3ce6ac27	0.02815826
134	0xbb84317d	-0.00403422
135	0xbc12ec8b	-0.008967529
136	0x3c894872	0.016758177
137	0x3d065de7	0.032804396
138	0x3dafb022	0.085785165
139	0xbc3b105d	-0.0114174755
140	0xbbb81320	-0.0056175143
141	0x3d1cf821	0.03832257
142	0xbc7e8d15	-0.015536566
143	0xbd2704f2	-0.0407762
144	0xbe32f80d	-0.17477436
145	0x3e152491	0.1456473
146	0x3d3775ea	0.044790186
147	0xbd480597	-0.048833456
148	0x3d8202e6	0.06348209
149	0xbdc8eab6	-0.098103926
150	0xbdbbd58b	-0.091715895
151	0x3dad92e2	0.08475281
152	0x3ad94bb8	0.0016578352
153	0xbe11f0dd	-0.14252038
154	0x3c20d303	0.009815934
155	0x3c1209f7	0.008913509
156	0xbd47d926	-0.048791073
157	0x3d45d588	0.048299342
158	0xbd56dcea	-0.052456774
159	0x3c4953b3	0.012288022
160	0x3ddb3be8	0.107047856
161	0xbd07b34b	-0.03312997
162	0x3d3cfae1	0.046137694
163	0x3c854bb2	0.016271446
164	0xbdd38cd4	-0.10329595
165	0xbdabf41d	-0.0839617
166	0x3e084298	0.13306653
167	0xbe1df940	-0.15427113
168	0xbc0a2427	-0.008431471
169	0x3c13dc35	0.009024669
170	0x3cdf3bb6	0.027250152
171	0xbe0e08ce	-0.13870546
172	0x3d4056d5	0.04695781
173	0xbc7fd48f	-0.015614643
174	0x3d5fcfe4	0.05464162
175	0xbcd80f08	-0.026374355
176	0x3d342b5a	0.043986656
177	0xbd1b28e9	-0.03788081
178	0x3d800cc7	0.06252437
179	0x3d8bf7fc	0.06834409
180	0x3b70c949	0.003674107
181	0x3cecc170	0.028900832
182	0x3c7df5b1	0.015500472
183	0x3dbfcbfa	0.09365077
184	0xbe0f9ccc	-0.14024657
185	0xbd091e66	-0.033476256
186	0xbd2ad8f3	-0.041710805
187	0xbceeb9e1	-0.029141368
188	0x3d552898	0.052040666
189	0xbcbd27ac	-0.023090206
190	0xbc5f8ea5	-0.013644849
191	0x3c962251	0.01832691
192	0x3de0567d	0.10953996
193	0xbc774520	-0.015092164
194	0x3d169752	0.036765404
195	0x3d6be2a4	0.05758919
196	0xbdb9e23b	-0.09076353
197	0xbc17773c	-0.009244736
198	0x3d1593c5	0.036517877
199	0x3d1f2c34	0.038860515
200	0x3c0f724d	0.008755279
201	0xbd0786b7	-0.03308746
202	0xbd8f80c8	-0.07006985
203	0x3cda8004	0.02667237
204	0xbcda75a2	-0.02666742
205	0xbce5f43c	-0.028070562
206	0x3e0196ca	0.12655178
207	0x3d29e432	0.04147739
208	0x3d765db8	0.06014797
209	0x3c4519f3	0.012030113
210	0xbd25931f	-0.04042351
211	0x3d3c344e	0.04594832
212	0xbd0f30bf	-0.034958597
213	0xbc6ce975	-0.014459957
214	0xbd4bf3e9	-0.049793158
215	0x3c0fbffa	0.008773798
216	0x3dc97bf6	0.09838097
217	0xbe100ead	-0.14068098
218	0xbcee68e3	-0.029102748
219	0x3bea1340	0.007143408
220	0x3d1d3f2e	0.03839033
221	0x3c918536	0.017763715
222	0x3ddded4b	0.10836276
223	0xbdd58923	-0.104265474
224	0xbe645cf4	-0.22301084
225	0x3d0e6e73	0.0347733
226	0xbc142379	-0.00904166
227	0x3dfec1fc	0.12439343
228	0xbd555107	-0.052079227
229	0x3d4484cb	0.047978204
230	0x3c312c87	0.010813839
231	0xbd23e2ee	-0.04001134
232	0xbe025cd9	-0.12730731
233	0xbc39ae34	-0.011333037
234	0xbd59fab2	-0.053217597
235	0xbcedbffd	-0.029022211
236	0x3d0db4c0	0.034596205
237	0x3e500d25	0.20317514
238	0x3de8e26b	0.11371311
239	0xbd47f226	-0.048814915
240	0x3bbcf5b4	0.005766595
241	0x3e7de699	0.24794997
242	0x3da778c6	0.081773326
243	0x3df38bde	0.11891912
244	0xbc8cfa6c	-0.017209254
245	0xbcf76185	-0.030197868
246	0xbc135914	-0.008993406
247	0x3d5ca1e4	0.05386533
248	0xbc55a3dd	-0.013039556
249	0xbd8af5c1	-0.06785155
250	0x3cb9af21	0.022666516
251	0xbd5d76a2	-0.054068215
252	0xbd72c7fc	-0.05927275
253	0x3ca69119	0.02033286
254	0x3c3c84a3	0.011506232
255	0x3d31e457	0.043430652

fc2.bias f4 [256]
0	0xba241356	-0.0006258985
1	0x3c987945	0.018612513
2	0x3d228c54	0.03968461
3	0xbc9b057d	-0.018923515
4	0xbdff2927	-0.12459021
5	0x3cb6e36c	0.02232524
6	0xbdb7e581	-0.08979321
7	0x3e99b67d	0.3002204
8	0x3d041fb3	0.032256793
9	0xbd6a0c81	-0.05714083
10	0x3d2c74b4	0.042103484
11	0x3db24296	0.087041065
12	0x3b05cd5e	0.0020416598
13	0xbe8fbdaf	-0.28074405
14	0x3c92afa6	0.017906021
15	0x3ed1a3c6	0.40945262
16	0x3e01b793	0.12667684
17	0x3e0fa8ae	0.1402919
18	0x3ce326c9	0.027728455
19	0xbd39fac9	-0.045405183
20	0x3c21aefe	0.009868382
21	0x3d8ba7f3	0.06819143
22	0xbd8405ef	-0.06446444
23	0xbcb79bd4	-0.022413172
24	0xbc09fad2	-0.008421617
25	0xbd0672db	-0.03282438
26	0x3e4f05f3	0.20217113
27	0x3d99217c	0.0747709
28	0xbb94ebf5	-0.00454473
29	0x3ec86342	0.39138228
30	0xbb165521	-0.0022938924
31	0x3d0fb82a	0.035087742
32	0x3d60d222	0.0548879
33	0xbdc60db7	-0.09670585
34	0x3ed516b9	0.416189
35	0x3e43b8d3	0.19113474
36	0x3d580c99	0.05274639
37	0x3d309885	0.043114204
38	0x3d4b92f0	0.049700677
39	0xbd2c0b19	-0.04200277
40	0xbbe87a03	-0.007094623
41	0x3d9e3109	0.077241965
42	0x3d8d5195	0.06900326
43	0xbd1d9dad	-0.03848045
44	0x3da3a488	0.07990366
45	0x3e55a416	0.20863375
46	0xbda3162f	-0.079632156
47	0xbd85e860	-0.06538463
48	0x3cda178d	0.026622558
49	0x3ae50d00	0.0017475188
50	0x3d71648e	0.058933787
51	0x3d948c0f	0.072532766
52	0xbd89d7be	-0.06730603
53	0x3e01f388	0.12690556
54	0x3e37cbea	0.17948881
55	0x3b6467f5	0.0034852002
56	0x3d6cc1e6	0.057802103
57	0x3d89ce10	0.067287564
58	0x3e11956f	0.1421716
59	0xbce9f1d3	-0.028557694
60	0x3d530d06	0.051526092
61	0xbcacbadc	-0.021085195
62	0xbe4b6629	-0.1986319
63	0xbd424cc5	-0.047436494
64	0xbc810d59	-0.015753435
65	0xbd8c7296	-0.06857793
66	0x3c56aa47	0.013102121
67	0x3cdd224c	0.026993893
68	0x3dee3eb8	0.116330564
69	0xbd725231	-0.059160415
70	0xbe74dcc6	-0.23912343
71	0xbd488c03	-0.04896165
72	0x3cc8d49d	0.024515444
73	0xbd9b6489	-0.07587535
74	0x3d525723	0.05135263
75	0xbda56c84	-0.08077338
76	0xbdf69e01	-0.120418556
77	0x3eb74702	0.35796362
78	0xbd4bcc2b	-0.049755257
79	0x3d932e81	0.07186604
80	0x3de6d55b	0.11271163
81	0x3c5f88b0	0.013643429
82	0xbd0ae74f	-0.033912
83	0xbd07a4e0	-0.03311622
84	0xbce4832a	-0.027894575
85	0xbda3f5a8	-0.080058396
86	0xbe8606a2	-0.26176935
87	0xbd010fd3	-0.03150923
88	0xbcec8f59	-0.028876947
89	0x3e10034c	0.14063758
90	0x3bb41159	0.005495232
91	0x3e12c267	0.14331971
92	0x3da1cde6	0.079006
93	0x3e14cccb	0.14531247
94	0xbeab3352	-0.33437592
95	0xbd21ae36	-0.03947278
96	0x3d9c16dc	0.076215476
97	0x3cccf5a0	0.025019467
98	0xbc9a6fff	-0.018852232
99	0x3e025f6a	0.1273171
100	0x3c1e0947	0.009645767
101	0x3d14cb7c	0.03632687
102	0x3cb5e81e	0.022205409
103	0xbcf0ead3	-0.029408848
104	0x3db37aa0	0.08763623
105	0x3c57006c	0.013122659
106	0xbd88a918	-0.06672877
107	0x3da3abdd	0.07991765
108	0x3e515ee0	0.20446348
109	0x3c1db681	0.009626032
110	0xbd6e9f70	-0.05825752
111	0x3ddb82ee	0.10718332
112	0xbd6711ad	-0.05641334
113	0xbdba3514	-0.09092155
114	0xbd18dc49	-0.037319455
115	0xbe0af30f	-0.13569282
116	0xbc4a0491	-0.01233019
117	0x3dd34ef3	0.10317793
118	0x3c8af203	0.016961103
119	0x3ddc4622	0.10755564
120	0xbd03ad9e	-0.032147996
121	0x3d302198	0.043000787
122	0x3edd6645	0.43242088
123	0x3d5e387b	0.054253083
124	0x3e130f24	0.14361244
125	0x3c9d9210	0.019234687
126	0xbcd002af	-0.025391905
127	0x3bc2d766	0.0059460877
128	0x3d243501	0.04008961
129	0x3ce8e328	0.028428629
130	0x3c5d6474	0.013512719
131	0xbd6a0c14	-0.057140425
132	0xbcd562bc	-0.026048057
133	0x3d8180f5	0.06323425
134	0x3bb26bbc	0.005444972
135	0xbbd3ba39	-0.0064614085
136	0x3e09b6cf	0.13448642
137	0x3a68bf77	0.0008878628
138	0xbd13fc49	-0.03612927
139	0xbd3e0305	-0.0463896
140	0x3ba572fa	0.0050491067
141	0x3d2b9996	0.041894518
142	0xbd4fa9b1	-0.05069894
143	0x3e89c58a	0.26908523
144	0xbb09dde3	-0.0021036796
145	0x3e935055	0.28772226
146	0x3ddba0ab	0.10724004
147	0xbd2f5ad0	-0.042811215
148	0xbcd0101a	-0.025398303
149	0x3d7f215e	0.06228768
150	0x3d4a51cd	0.049394418
151	0xbc2aa608	-0.0104155615
152	0x3d58ef51	0.052962605
153	0x3ce87c30	0.02837953
154	0x3d7ab5c0	0.061208487
155	0x3d05a966	0.032632254
156	0x3d1adf8d	0.03781085
157	0x3dfd7a89	0.12376887
158	0xbe65fd6c	-0.22459954
159	0x3ebeeb25	0.37288776
160	0x3d180668	0.037115484
161	0x3d095efb	0.033537846
162	0x3d05d5c0	0.03267455
163	0x3e9a223b	0.3010424
164	0xbc7c0d40	-0.015384018
165	0x3abab237	0.0014243786
166	0xbc5ece47	-0.013598985
167	0x3d35d2bd	0.04439043
168	0xbd90cda7	-0.07070475
169	0x3ed1481a	0.40875322
170	0x3df1a1b0	0.117984176
171	0xbd9ef538	-0.077616155
172	0x3d694885	0.056953926
173	0x3bf4bb0f	0.007468588
174	0xbda02939	-0.078203626
175	0xbd415f84	-0.04721023
176	0x3de8f0f2	0.11374082
177	0x3d50d11e	0.05098068
178	0x3e44d234	0.19220811
179	0x3c0d087a	0.008607978
180	0xbdaa6ab6	-0.08321135
181	0xbc3e8065	-0.011627291
182	0xbdd6c4a5	-0.10486726
183	0xbe143c2f	-0.14476083
184	0x3adf18ca	0.0017020938
185	0xbd9edcbe	-0.07756947
186	0x3e92bd93	0.2866026
187	0xbd4472ab	-0.04796092
188	0x3db542e8	0.08850652
189	0xbd925221	-0.07144571
190	0x3da244a5	0.07923249
191	0xbb893a91	-0.00418789
192	0x3a0eec3a	0.00054520706
193	0xbcc19316	-0.023629706
194	0x3bd39dee	0.0064580357
195	0x3dd8eb0e	0.10591708
196	0x3e16c525	0.14723642
197	0x3cf746e8	0.030185178
198	0x3e065d19	0.13121451
199	0xbd009d6b	-0.031400125
200	0x3e04533b	0.12922375
201	0x3e2086b6	0.15676388
202	0xbd36b397	-0.044604864
203	0xbe07e915	-0.13272507
204	0x3da93eec	0.082639545
205	0x3d8a5f78	0.067564905
206	0x3ea46694	0.3210951
207	0x3d62a5a7	0.05533376
208	0x3c8aff24	0.016967364
209	0x3d565340	0.052325487
210	0xbda22813	-0.079178
211	0x3ce85ad9	0.028363632
212	0x3eb4bf0d	0.3530201
213	0x3e089b42	0.13340476
214	0x3d35ef50	0.04441768
215	0xbd58a86d	-0.052895
216	0xbdafc953	-0.085833214
217	0x3da615d9	0.08109636
218	0xbd7ceb08	-0.06174758
219	0x3dfb424c	0.122685045
220	0x3dc5e165	0.09662131
221	0x3d634aea	0.055491365
222	0x3f11cc77	0.56952614
223	0x3e2f6e6c	0.17131966
224	0x3e053755	0.13009389
225	0xbcd564b6	-0.026049
226	0xbb1e27cd	-0.002413261
227	0x3c1d8e18	0.009616397
228	0xbcd5b48b	-0.026087066
229	0x3d143ed6	0.036192738
230	0x3dc8ca42	0.098042026
231	0xbb7d1ff3	-0.003862378
232	0xbd2952b5	-0.04133864
233	0xbd604584	-0.054753795
234	0x3de81b82	0.11333372
235	0xbcc7603e	-0.024337884
236	0x3db31eae	0.08746086
237	0xbdc02311	-0.093816884
238	0x3c01c051	0.007919387
239	0xbc29fe70	-0.010375604
240	0x3dcba7c7	0.0994411
241	0x3c106c07	0.008814818
242	0x3d8f6945	0.070025004
243	0x3d7ed755	0.062217075
244	0x3d50bfb5	0.050964076
245	0x3da8f9ec	0.08250794
246	0xbc4082a1	-0.011749894
247	0x3c8d9647	0.017283572
248	0xbd248c1a	-0.040172674
249	0x3d413f2f	0.047179397
250	0xbd06b714	-0.03288944
251	0x3d6ac929	0.057320748
252	0x3d9930df	0.074800245
253	0xbdfedca3	-0.12444427
254	0x3e0bc7b5	0.13650401
255	0xbe14beab	-0.14525859

fc3.weight f4 [18, 256]
0	0x3cd32716	0.025775474
1	0x3a3563c8	0.00069194706
2	0xbbfcc6f4	-0.0077141467
3	0xbc65f3ad	-0.014035148
4	0xbd0acf5b	-0.033889156
5	0x3c1943e0	0.009354562
6	0x3d6a8cad	0.057263065
7	0x3ce685fb	0.028140059
8	0x3c162747	0.009164638
9	0xbccaf43b	-0.024774661
10	0xbc4e5803	-0.012594226
11	0x3c08da4e	0.008352829
12	0xbc51fd23	-0.0128167
13	0xbcfc04e8	-0.030764058
14	0x3d6edb69	0.058314715
15	0x3dad9746	0.08476119
16	0xbe0d75e1	-0.13814498
17	0xbc388ea2	-0.011264475
18	0x3d53fe76	0.051756345
19	0xbd995599	-0.074870296
20	0x3d3ec8ac	0.046578094
21	0x3d6a49ba	0.057199217
22	0x3d3c849d	0.046024907
23	0xbc95c66a	-0.018283088
24	0x3c82aaf5	0.01595066
25	0xbd12c873	-0.035835695
26	0x3ca2c950	0.019871384
27	0x3cd95bce	0.026533034
28	0x3bbffc77	0.0058589536
29	0x3d8c4001	0.06848145
30	0xbc3be6d6	-0.01146861
31	0xbdaec500	-0.085336685
32	0x3d05c269	0.032656107
33	0xbcecbbbd	-0.028898114
34	0x3b88f9a0	0.0041801482
35	0x3ce4d6e1	0.027934493
36	0x3d6f5d34	0.058438495
37	0x3d40fca5	0.04711594
38	0x3d5c26f3	0.053748082
39	0x3ca864a3	0.0205558
40	0xbd9e3657	-0.07725208
41	0xbdac2180	-0.08404827
42	0xbd6f1e7b	-0.058378678
43	0x3c981819	0.018566178
44	0xbcd3cb5c	-0.025853805
45	0xbc257042	-0.010097565
46	0x3cd10555	0.025515238
47	0xbdd897e8	-0.10575849
48	0xbd9ebc74	-0.07750788
49	0x3c85523f	0.01627457
50	0xba52b4b5	-0.00080377917
51	0xbd956d23	-0.07296207
52	0x3ce9ef5c	0.028556518
53	0x3c49ccc0	0.012316883
54	0xbbf7c62b	-0.0075614653
55	0x3d1a1e32	0.037626453
56	0xba4c7148	-0.00077988626
57	0xbd19a2a0	-0.037508607
58	0xbdd78731	-0.105238326
59	0x3d677ec8	0.056517392
60	0x3d57f978	0.052728146
61	0xbd3e47ff	-0.04645538
62	0xbc9e67b0	-0.019336551
63	0xbc5d0f9d	-0.013492492
64	0xbc757f4b	-0.014983962
65	0x3c6e3143	0.014538112
66	0x3d5aeb29	0.053446922
67	0xbac65874	-0.0015132562
68	0xbda70199	-0.081546016
69	0x3c36ba31	0.01115279
70	0xbcb975d5	-0.022639195
71	0xbd05812a	-0.032593884
72	0x3be02362	0.0068401555
73	0xbc9e2ef2	-0.019309495
74	0x3b38949f	0.0028164757
75	0xbc65f865	-0.014036273
76	0xbc5ce249	-0.013481685
77	0x3cfa7648	0.030573979
78	0x3d541730	0.051779926
79	0xb9cb04d5	-0.00038722777
80	0xbcea9cd4	-0.028639235
81	0xbd57adf1	-0.052656118
82	0xbd39c4b7	-0.045353618
83	0x3d634f9a	0.055495836
84	0xbda0c34b	-0.07849749
85	0x3a19a7a1	0.00058614655
86	0xbca4c303	-0.02011252
87	0xbd85b83b	-0.0652928
88	0xbd2c7b0f	-0.042109545
89	0x3d278996	0.040902697
90	0xbd182d74	-0.037152722
91	0xbd3191e6	-0.04335203
92	0x3c37299f	0.011179357
93	0x3ba54117	0.0050431597
94	0xbc82ec5d	-0.015981847
95	0xbb7da4e3	-0.0038703016
96	0xbb0a0a8e	-0.002106342
97	0x3be83570	0.0070864484
98	0xbcd550d9	-0.026039528
99	0x3be37924	0.0069419313
100	0x3b8a4355	0.0042194524
101	0x3d317f3c	0.04333423
102	0x3d0188f3	0.031624746
103	0x3cdc5581	0.02689624
104	0x3c89d1c6	0.01682366
105	0x3ca03f67	0.019561483
106	0x3dbeaba5	0.09310082
107	0x3c16d98e	0.0092071425
108	0xbd71c377	-0.0590243
109	0x3d28bf76	0.041198216
110	0x3d6295f1	0.055318777
111	0x3ca7315a	0.020409275
112	0x3cc821c9	0.024430173
113	0xbd374418	-0.044742674
114	0x3d651e44	0.055937067
115	0xbcb2646b	-0.021776399
116	0x3d5643cb	0.052310746
117	0x3caa8cf4	0.020819165
118	0xbc90abad	-0.017659986
119	0x3b5a23f0	0.003328558
120	0x3c9a8742	0.018863324
121	0xbba01ae0	-0.0048860162
122	0x3c70443f	0.014664709
123	0xbbadce81	-0.005304158
124	0xbde0766d	-0.10960088
125	0x3d0e95ff	0.034811016
126	0xbc971180	-0.018440962
127	0x3d3190d8	0.043351024
128	0xbdc26ac7	-0.094930224
129	0x3d664e14	0.056226805
130	0xbd9e9bc0	-0.07744551
131	0xbc7f537f	-0.015583872
132	0xbc129a2a	-0.008947888
133	0x3cd13c16	0.025541347
134	0x3ce1b666	0.027552795
135	0xbc33f33f	-0.010983287
136	0x3db7ab78	0.08968252
137	0xbd60e1ab	-0.054902714
138	0xbc228512	-0.009919422
139	0xbc55cce2	-0.013049336
140	0x3d2b6516	0.04184445
141	0xbc063bbe	-0.008192955
142	0xbd29f367	-0.041491892
143	0x3c95fd14	0.018309154
144	0xbe1e7c48	-0.15477097
145	0x3cd5c65c	0.026095562
146	0x3dc5a579	0.09650702
147	0xbc7cac8a	-0.015421996
148	0x3ce97383	0.028497463
149	0xbd88319e	-0.06650089
150	0xbc9f24da	-0.019426752
151	0xbcd81558	-0.026377365
152	0xbcf9bf5d	-0.030486757
153	0xbd495723	-0.049155366
154	0x3daa9df6	0.0833091
155	0xbd1aa37d	-0.03775357
156	0xbdedff06	-0.116209075
157	0xbcb8db83	-0.022565609
158	0xbbccad86	-0.0062462715
159	0x3c853d6d	0.016264642
160	0xbd16f0b7	-0.036850657
161	0x3d068c10	0.032848418
162	0x3d042652	0.032263108
163	0x3c5cba36	0.0134721305
164	0xbd55dd00	-0.052212715
165	0x3d3de2d0	0.046358883
166	0xbdb01cbe	-0.08599232
167	0x3d147b25	0.036250252
168	0x3d2cda33	0.04220028
169	0x3c41109e	0.011783747
170	0x3a09917c	0.0005247814
171	0x3bd5ba5f	0.0065224613
172	0x3c99a283	0.01875425
173	0xbd92e875	-0.07173244
174	0xbcb2dabb	-0.021832814
175	0x3d5f823f	0.05456757
176	0xbd4a52a1	-0.049395207
177	0x3c9c4e0c	0.019080184
178	0x3cc45ac4	0.023969062
179	0x3d1dfe5d	0.038572658
180	0x3c953d8e	0.018217828
181	0x3d2e56f0	0.04256338
182	0x3d35ce68	0.044386297
183	0xbc954a11	-0.018223794
184	0xbb4748a9	-0.00304083
185	0xbd254e2d	-0.040357757
186	0xbd645ac5	-0.055750627
187	0xbc6e0d0d	-0.014529479
188	0xbd8f4aa2	-0.06996657
189	0xbd1a8b59	-0.03773055
190	0xb9c3610f	-0.00037265613
191	0xbb954834	-0.0045557264
192	0xbbc35cbe	-0.0059619835
193	0xbb1b0082	-0.0023651426
194	0x3d0af9fe	0.033929817
195	0x3cc5be3a	0.024138559
196	0x3d10ec12	0.035381384
197	0xbcba765d	-0.022761518
198	0x3de040fa	0.10949893
199	0x3c0bdcd4	0.008536536
200	0x3d34905b	0.04408298
201	0xbc969647	-0.018382205
202	0xbd16f34b	-0.036853116
203	0xbb90867f	-0.0044105644
204	0xbdae766b	-0.0851868
205	0x3d815966	0.063158795
206	0x3cdf5490	0.027262002
207	0x3c0ea8db	0.0087072505
208	0xbc7e0a74	-0.015505422
209	0x3d78995c	0.06069313
210	0x3c07c109	0.008285769
211	0xbc56f78e	-0.013120545
212	0x3d27419b	0.04083405
213	0x3c4f28cd	0.012644005
214	0xbd8c90c3	-0.068635486
215	0xbcc204ab	-0.023683866
216	0x3d0439c6	0.03228166
217	0xbdba499a	-0.0909607
218	0x3c36ffe1	0.011169405
219	0xbc04f0ea	-0.008114079
220	0xbcd60238	-0.026124105
221	0x3c511d5c	0.0127633475
222	0x3d7cc0c1	0.061707262
223	0xbcab1b80	-0.020887136
224	0x3bc6b4eb	0.0060640476
225	0x3d872ea1	0.06600691
226	0x3d1bf50b	0.038075488
227	0x3b5cfbcb	0.0033719416
228	0xbc7ea203	-0.015541556
229	0x3d33171f	0.043723222
230	0x3cd95745	0.026530871
231	0xbcf740d3	-0.030182278
232	0x3cf43a86	0.029813062
233	0x3c9f75d3	0.019465363
234	0x3cb70540	0.02234137
235	0xbcc54b89	-0.02408387
236	0x3c58a63a	0.013223225
237	0xbd688c0d	-0.056774188
238	0x3d499a42	0.049219377
239	0x3cf891b0	0.030342907
240	0xbbd52ed4	-0.0065058265
241	0xbd02efdd	-0.031967033
242	0x3ba9402f	0.005165122
243	0xbcb5917c	-0.022164099
244	0xbe5c8b1f	-0.21537445
245	0xbce4084e	-0.027835991
246	0x3d0503a5	0.03247418
247	0x3c8d5e0a	0.017256755
248	0x3cdaaf64	0.02669496
249	0x3d5fdfd1	0.054656807
250	0xbc0422a1	-0.008064897
251	0xbdab1cc5	-0.08355097
252	0x3cb1cb44	0.02170337
253	0xbbf23578	-0.007391628
254	0x3d6d6438	0.057956904
255	0xbcf0f21d	-0.029412324

fc3.bias f4 [18]
0	0x3eeb7260	0.459857
1	0x3e7f8570	0.24953246
2	0x3f024d21	0.5089894
3	0x3eda3063	0.4261504
4	0x3ecfd214	0.40589964
5	0x3ece6839	0.4031389
6	0x3ef67c11	0.4814153
7	0x3eb82546	0.35965937
8	0x3ebc4958	0.36774707
9	0x3ed48460	0.41507244
10	0x3eb3fc2b	0.35153326
11	0x3e8108fb	0.25202164
12	0x3ece29d1	0.40266278
13	0x3e9f66ed	0.31133214
14	0x3ea8cdc4	0.32969487
15	0x3ee307fd	0.44342032
16	0x3e8f1f33	0.2795349
17	0x3e924d9c	0.28574836
