net/net_boxing-v5_vanillaDQN_PER_Vanilla_more_mem_PER_Tom_1_target.pth (torch, 546711 bytes, 6 tensors)

fc1.weight f4 [256, 256]
0	0xbc4969fb	-0.012293334
1	0x3b720d08	0.0036934037
2	0xbcc00070	-0.023437709
3	0x3ca5a589	0.020220535
4	0xbcf5096c	-0.02991172
5	0xbe7d725e	-0.24750659
6	0x3cf63fb6	0.030059677
7	0x3d841df1	0.06451023
8	0x3ca8748f	0.020563392
9	0xbc7ba3b7	-0.015358857
10	0x3c41d1cc	0.011829805
11	0xba97db55	-0.0011585752
12	0x3d0064bc	0.031346068
13	0x3c550a42	0.013002934
14	0xbcf85b7a	-0.030317057
15	0x3d37cf55	0.04487546
16	0xbc713e53	-0.014724332
17	0xbd90a236	-0.07062189
18	0xbc5c0bdf	-0.013430565
19	0xbb724bfc	-0.003697156
20	0xbd6d0a10	-0.057870924
21	0xbf3bfc94	-0.7343228
22	0xbd21fb67	-0.039546397
23	0xbd665d38	-0.056241244
24	0xbe9d51d2	-0.30726486
25	0xbd6e6cea	-0.058209337
26	0xbe2c0db4	-0.16802102
27	0xbd66e550	-0.056371033
28	0xbe3130c9	-0.17303766
29	0x3ce071e8	0.027398065
30	0xbdeff5e9	-0.117168255
31	0x3d2cfc42	0.04223276
32	0x3de9bbeb	0.11412796
33	0xbe14e334	-0.14539796
34	0x3ec8a325	0.3918697
35	0xbed324af	-0.41238925
36	0x3d667d66	0.056271933
37	0x3ac95794	0.0015361183
38	0x3d5ce09a	0.053925134
39	0x3cccd880	0.025005579
40	0x3d48601a	0.048919775
41	0x3d6427c2	0.05570198
42	0xbc55f338	-0.013058476
43	0xbc4a0d6b	-0.012332301
44	0x3c1a1468	0.009404279
45	0x3b510cd6	0.003189852
46	0xbd85e41c	-0.06537649
47	0xbfa9253d	-1.3214489
48	0xbd30236c	-0.04300253
49	0xbde5172b	-0.111860596
50	0xbd310286	-0.043215297
51	0x3c964284	0.018342264
52	0xbd340bc2	-0.043956526
53	0x3e5470bc	0.2074613
54	0xbc8be370	-0.017076224
55	0x3ef1aafd	0.47200766
56	0x3fd3c690	1.6544971
57	0xbe32f693	-0.17476873
58	0x3d3b609a	0.045746423
59	0xbe003688	-0.12520802
60	0xc08661eb	-4.199453
61	0xbe78276f	-0.24233793
62	0x3baaaf80	0.0052089095
63	0x3e2833b1	0.16425969
64	0xbdc47a51	-0.095936425
65	0x3ed442a4	0.41457093
66	0x3e9a30d8	0.3011539
67	0x3e44712c	0.19183797
68	0x3ea0cae1	0.31404784
69	0xbeb0635c	-0.34450805
70	0xbe6c4ab1	-0.23075368
71	0xbe841f97	-0.2580535
72	0xbeddb0cb	-0.43298945
73	0x3e88cfff	0.26721188
74	0xbc973be8	-0.018461183
75	0xbc84aef0	-0.016196698
76	0xbd7d34a4	-0.06181778
77	0x3ceadc21	0.028669419
78	0xbd445dfd	-0.047941197
79	0xbd0cc364	-0.034366027
80	0xbd22c9be	-0.039743178
81	0xc02de9ea	-2.717402
82	0xbed2172e	-0.4103331
83	0xbe293da6	-0.16527423
84	0xbf0d6e24	-0.55246186
85	0xbc871c37	-0.016492946
86	0xbc95d5ec	-0.018290482
87	0x3d8a0435	0.06739084
88	0xbfbe5435	-1.4869448
89	0xbc9a9f06	-0.018874656
90	0xbd06dff2	-0.032928415
91	0xbd523696	-0.05132159
92	0xbfe50627	-1.7892503
93	0x3a15b14b	0.00057103176
94	0xbc2ffcc4	-0.010741416
95	0x3d557560	0.05211389
96	0xbd444b75	-0.047923524
97	0x3dd49382	0.103796974
98	0x3e3379e0	0.1752696
99	0xbf07677c	-0.5289228
100	0xbacd00c0	-0.0015640482
101	0xbbdda282	-0.006763757
102	0x3d5a09ec	0.05323212
103	0xbd8cb8df	-0.06871199
104	0xbd180a2c	-0.037119076
105	0xbddd705b	-0.10812446
106	0x3cc7982c	0.024364553
107	0x3ebb010f	0.36524245
108	0xbcaab3d0	-0.020837694
109	0xbcd7ebe6	-0.026357602
110	0x3cec4780	0.028842688
111	0xbd8ff18b	-0.070284925
112	0x3d2a0bec	0.041515276
113	0xbde00d56	-0.10940044
114	0x3d20bfe2	0.039245494
115	0xbcc726c4	-0.024310477
116	0xbacda500	-0.0015689433
117	0xbcc11c01	-0.023572924
118	0xbc4fc88a	-0.01268209
119	0xbdfed6d9	-0.12443323
120	0x3d72a280	0.059237003
121	0x3ce22a39	0.027608024
122	0xbe05df2a	-0.13073412
123	0xbc8cf246	-0.017205369
124	0x3d49839e	0.049197786
125	0xbc347a95	-0.011015554
126	0xbd392e7c	-0.045210347
127	0x3ca6ccad	0.020361269
128	0x3d35b8eb	0.044365805
129	0xb9c58000	-0.00037670135
130	0xbbfbc6e0	-0.00768362
131	0x3a1d0b80	0.00059907883
132	0xbc73cfe8	-0.014881112
133	0x3e53235a	0.20618954
134	0xbd1ac1e0	-0.03778255
135	0xbd290558	-0.04126486
136	0x3ca81548	0.02051796
137	0x3d66ece0	0.056378245
138	0xbd4c83e4	-0.04993047
139	0xbd71a79a	-0.058997728
140	0xbd0a7762	-0.03380526
141	0x3d75b9e6	0.05999174
142	0x3c9e01ed	0.019288028
143	0x3a27edac	0.00064059603
144	0x3e4568d7	0.19278274
145	0xbdb51cc7	-0.088433795
146	0xbdac3777	-0.084090166
147	0xbf2d72c9	-0.67753273
148	0x3c8eaf40	0.01741755
149	0xbd8cefb9	-0.06881661
150	0xbe027306	-0.1273919
151	0x3be5d510	0.0070139244
152	0xbf18686f	-0.59534353
153	0xbb806300	-0.0039180517
154	0x3e2e8f5e	0.17046878
155	0xbd4f0f4c	-0.050551698
156	0x3f035f36	0.51317155
157	0x3d30cbe4	0.043163195
158	0xbd18239d	-0.03714334
159	0x3c04e688	0.008111604
160	0xbe816125	-0.25269428
161	0x3e644d72	0.22295168
162	0x3e219604	0.15779883
163	0xbe3aea76	-0.18253502
164	0xbd685ac2	-0.05672718
165	0x3d1eaaca	0.038737096
166	0xbd3ede6e	-0.046598844
167	0xbae61000	-0.0017552376
168	0xbd743218	-0.059618086
169	0x3c8fc5f0	0.017550439
170	0x3999a600	0.00029306114
171	0x3d3115fc	0.043233857
172	0x3c2c10b0	0.0105020255
173	0xbd49e340	-0.049288988
174	0x3c487451	0.012234763
175	0xbf383974	-0.71962667
176	0x3cf5c6f8	0.030002102
177	0x3f49e444	0.7886393
178	0x3d0a22c6	0.03372457
179	0xbf044d2e	-0.51680267
180	0x3c891148	0.016731873
181	0xbeb15283	-0.34633264
182	0x3d699dec	0.05703537
183	0x3eb1c201	0.34718326
184	0x3f44786f	0.7674627
185	0x3e18ede2	0.14934495
186	0x3c1f2180	0.009712577
187	0x3ec5b891	0.38617375
188	0xbe33d9e5	-0.17563589
189	0x3e9aa888	0.30206704
190	0x3cee072c	0.029056154
191	0x3da4a6eb	0.080396496
192	0xbd3dbc00	-0.04632187
193	0x3e0bf673	0.13668232
194	0x3e680d01	0.2266121
195	0x3e03176e	0.12801906
196	0x3e39e935	0.18155368
197	0xbd886429	-0.06659729
198	0xbe2f79d0	-0.17136312
199	0xbe249741	-0.16073324
200	0xbe37cc2a	-0.17948976
201	0xbdd07ffe	-0.101806626
202	0x3ed0edb8	0.40806365
203	0x3cdbc8ca	0.026829142
204	0xbc096ac0	-0.008387268
205	0x3e42d301	0.19025804
206	0x3d8af256	0.06784503
207	0xbe340d32	-0.17583159
208	0xbd245d4c	-0.040128037
209	0xbf7886f4	-0.9708092
210	0x3e8c7044	0.27429402
211	0xbe8681de	-0.26270956
212	0x3e1e8d3f	0.15483569
213	0x3b483380	0.0030548275
214	0xb9fb0100	-0.00047875196
215	0x3ca8b0ce	0.02059212
216	0xbf106c08	-0.5641484
217	0x3be347b0	0.006936036
218	0xbd203708	-0.039114982
219	0x3f074593	0.52840537
220	0xbf4bbb9d	-0.7958315
221	0xbbc0abcc	-0.005879855
222	0xbbcadc71	-0.0061908294
223	0xbd80da54	-0.06291643
224	0x3d63e368	0.055636793
225	0xbe0f4ae5	-0.13993414
226	0xbe116c98	-0.14201581
227	0xbce64d36	-0.028112989
228	0x3d5835ae	0.052785568
229	0x3c8292c9	0.015939133
230	0xbb1cbc80	-0.0023916066
231	0xbdd2c1d6	-0.102908775
232	0x3ca8456c	0.020540915
233	0xbdafbd12	-0.08580984
234	0x3d192612	0.037389822
235	0xbca53371	-0.02016613
236	0x3d0b212c	0.033967182
237	0x3c1e9132	0.009678172
238	0x3b88f030	0.004179023
239	0xbb82758e	-0.0039812988
240	0xbd7d7698	-0.061880678
241	0x3db87373	0.09006395
242	0x3c8e5b10	0.017377406
243	0x3c886278	0.016648516
244	0xbc8e28e8	-0.01735349
245	0x3c930fb8	0.017951831
246	0x3c728bc0	0.014803827
247	0x3e592af1	0.21207787
248	0xbcf09ad8	-0.02937071
249	0x3cff7c78	0.031187281
250	0xbd3318be	-0.043724768
251	0xbcb5dbf8	-0.022199616
252	0x3d14df82	0.036345966
253	0x3d036bf4	0.032085374
254	0xbd46301e	-0.048385732
255	0x3ce36f98	0.027763173

fc1.bias f4 [256]
0	0x3d4d5272	0.050127454
1	0xbc71f877	-0.014768711
2	0xbd46d63b	-0.04854415
3	0x3d1e8cbd	0.038708437
4	0x3ba8a28b	0.0051463298
5	0x3d2a964d	0.041647244
6	0x3b24b92e	0.002513479
7	0x3d9be90e	0.07612811
8	0xbc507938	-0.012724213
9	0xbd0b2ba7	-0.033977177
10	0xbce53b1e	-0.02798229
11	0x3d44ad6d	0.048016954
12	0xba875290	-0.0010324288
13	0xbb7e2121	-0.003877707
14	0xbd738e31	-0.059461776
15	0x3babc282	0.005241693
16	0x3d268eba	0.04066346
17	0xbc3a28c7	-0.011362261
18	0x3cc79563	0.024363225
19	0x3d05603f	0.03256249
20	0x3c459860	0.012060255
21	0x3bc333c2	0.0059570977
22	0x3ce12858	0.027485058
23	0x3d401d22	0.046902783
24	0x3d347993	0.044061255
25	0x3bc5d724	0.0060376097
26	0xbb7ffe0d	-0.0039061338
27	0xbb46d040	-0.003033653
28	0x3cfabbef	0.030607192
29	0xbd6d5f13	-0.057951998
30	0xbc8d9f93	-0.017288005
31	0x3e2d2601	0.16909029
32	0xbceac087	-0.028656257
33	0x3d6982a0	0.05700934
34	0x3d5713c3	0.05250908
35	0x3cffc376	0.031221133
36	0xbd0e7dcc	-0.034787938
37	0x3d1d35ea	0.038381495
38	0x3d0f570f	0.034995135
39	0x39e7e500	0.00044230372
40	0xbd394086	-0.04522755
41	0x3c8413eb	0.016122779
42	0xbd07f444	-0.033191934
43	0x3cd75157	0.026283903
44	0x3cb5ba92	0.02218369
45	0xbcb294db	-0.021799495
46	0xbd453cd8	-0.04815373
47	0xbd2ce813	-0.04221351
48	0x3d77f6aa	0.06053797
49	0xbd835a35	-0.0641369
50	0x3b8981a3	0.004196362
51	0xbd648ea8	-0.05580011
52	0xbd337fa3	-0.043822896
53	0xbcbfc5c7	-0.023409737
54	0xbd507038	-0.05088827
55	0xbce78fb9	-0.028266774
56	0xbd031642	-0.03200365
57	0xbd89c059	-0.067261405
58	0x3d1fc945	0.039010305
59	0xb9a6e9b1	-0.000318361
60	0x3d502dbd	0.05082487
61	0x39f0a731	0.00045900934
62	0xbd4b5554	-0.049641922
63	0x3c97cc4c	0.018530034
64	0x3d0ab53f	0.033864256
65	0xbcc35549	-0.023844378
66	0x3b16c78f	0.002300713
67	0xbb23fed4	-0.0025023716
68	0xbca99dc4	-0.020705111
69	0xbd7413ec	-0.05958931
70	0x3cb8f388	0.022577062
71	0x3d1fb5a9	0.038991604
72	0xbd5f24df	-0.054478522
73	0x3e1bd5df	0.15218304
74	0xbcd313a3	-0.0257662
75	0x3d3db4c1	0.04631496
76	0x3d3ae76d	0.04563086
77	0xbcdb8061	-0.026794614
78	0x3d0d2c57	0.034466114
79	0x3c4761d5	0.012169321
80	0xbc815f49	-0.015792506
81	0xbd435cd3	-0.047695946
82	0x3d28672e	0.041114025
83	0x3d242ad7	0.040079918
84	0x3d2aa222	0.04165853
85	0xbd857420	-0.0651629
86	0x3ab0178d	0.0013434753
87	0x3b94cc64	0.004540967
88	0xbce02da4	-0.027365513
89	0x3bc9346a	0.0061402814
90	0xbd2a0d3a	-0.04151652
91	0xbd39be9c	-0.045347795
92	0x3d2814f2	0.0410356
93	0x3d339d49	0.04385117
94	0xbd7452a5	-0.05964913
95	0x3da326c8	0.07966381
96	0xbd0c6af6	-0.034281693
97	0x3bb504fd	0.0055242763
98	0xbd3c7953	-0.04601414
99	0xbd8f72f7	-0.0700435
100	0xbd306e4c	-0.043073937
101	0x3d520c61	0.051281337
102	0x3d34e65e	0.044165008
103	0x3b892a51	0.0041859527
104	0x3cb07e48	0.02154459
105	0xbd436044	-0.047699228
106	0xbd8e3377	-0.0694341
107	0x3d458444	0.04822184
108	0x3c1a8cc8	0.009432979
109	0x3d2d9eaa	0.042387642
110	0xbd4170bd	-0.047226656
111	0x3c402a48	0.011728831
112	0x3bdd74f1	0.0067583253
113	0x3d3e6c88	0.046490222
114	0x3d713b6d	0.058894563
115	0x3dbd72fd	0.09250448
116	0xbd1b800c	-0.037963912
117	0xbd824e0e	-0.06362544
118	0xbd361d6c	-0.044461653
119	0x3ce48139	0.02789365
120	0xbd6527c6	-0.055946134
121	0x3bbd7fe0	0.005783066
122	0x3cfa5c74	0.030561663
123	0x3d116838	0.03549978
124	0x3cf4d693	0.029887473
125	0xbc4eff9e	-0.012634186
126	0x3d58c08e	0.05291801
127	0xbd7b738a	-0.061389484
128	0x3d50566c	0.05086367
129	0x3c735772	0.014852392
130	0x3d10aa70	0.035318792
131	0xbd3399b2	-0.043847747
132	0xbd19255d	-0.037389148
133	0x3cb5f9aa	0.022213776
134	0xbcbb2809	-0.022846239
135	0x3d30d467	0.043171313
136	0x3dc7a8e2	0.09749009
137	0xbcfad83f	-0.030620692
138	0xbb095545	-0.0020955366
139	0x3b9f449a	0.004860473
140	0xbcbc49d0	-0.022984415
141	0xbced55ac	-0.028971516
142	0xb93e3d04	-0.00018142542
143	0x3d458f6f	0.048232492
144	0xbd0c84da	-0.034306385
145	0x3ca7caf3	0.020482516
146	0x3d1ab969	0.037774477
147	0x3d1bf753	0.038077664
148	0x3d292074	0.041290715
149	0xbcdfbb40	-0.027310967
150	0xbbd261d6	-0.0064203544
151	0x3b4275a8	0.002967218
152	0x3c4ec120	0.012619287
153	0xbd6c9c54	-0.057766274
154	0xbd5cf67b	-0.053946
155	0xbd62c3bb	-0.055362444
156	0x3d503442	0.050831087
157	0x3cb31dd2	0.021864805
158	0xbd58922f	-0.052873787
159	0xbcf549a1	-0.029942336
160	0x3b43b3cd	0.0029861808
161	0xbc7b6dd3	-0.015346008
162	0xbda5aec6	-0.08089976
163	0xbd841001	-0.06448365
164	0x3d570203	0.052492153
165	0xbc75afb6	-0.014995506
166	0x3ac3b693	0.0014931731
167	0xbbea523a	-0.0071509155
168	0xbba58fea	-0.0050525563
169	0xbbf63d83	-0.007514657
170	0x3c4eefbe	0.012630401
171	0xbd66636a	-0.056247152
172	0x3ce64341	0.028108241
173	0xbc2b4619	-0.010453724
174	0x3cd73912	0.02627233
175	0xbbafb181	-0.0053617363
176	0xbc9cbd04	-0.019133098
177	0x3d1d7f6b	0.038451593
178	0xbd186be6	-0.037212275
179	0x3a8fa9a1	0.0010960588
180	0x3d0b40dc	0.0339974
181	0xbcd24751	-0.025668772
182	0xbd07058f	-0.032964285
183	0x3d29d254	0.04146035
184	0x3b611410	0.0034344234
185	0x3bc27c6e	0.0059352433
186	0xbbb6bb85	-0.0055765533
187	0xbd517c5c	-0.05114399
188	0xbd1e49fe	-0.038644783
189	0xbb8605f8	-0.004090067
190	0xbd2ffd5a	-0.042966224
191	0x3ca7bad5	0.02047483
192	0xba201a01	-0.00061073905
193	0x3c4429fb	0.0119729
194	0xbd71b8e8	-0.05901423
195	0x3cc12b9e	0.023580369
196	0xbd8e5fc0	-0.069518566
197	0xbd5e2ae8	-0.054240137
198	0xbc1a9911	-0.009435908
199	0xbcb957ee	-0.022624936
200	0xbb25ff16	-0.0025329045
201	0xbcf84478	-0.030306086
202	0xbd4a709b	-0.049423795
203	0x3c392501	0.011300326
204	0x3adcd3bf	0.0016847773
205	0xbcf6b8a4	-0.03011734
206	0x3c2d1f88	0.0105666
207	0x3d4168fe	0.04721927
208	0xbd278d7e	-0.04090642
209	0x3c9dc22f	0.019257633
210	0xbb37ac13	-0.0028026148
211	0x3c0cfa00	0.0086045265
212	0xbce81254	-0.028329052
213	0xbd03a8cf	-0.03214341
214	0x3b4f8f67	0.0031671168
215	0xbcd4b210	-0.025963813
216	0x3c9e668f	0.019336013
217	0x3c1d6ab3	0.009607959
218	0xbcffb6fb	-0.031215182
219	0x3d5426fa	0.051794983
220	0xbca7bb58	-0.020475075
221	0x3d6197c3	0.055076372
222	0xbd86c29c	-0.065800875
223	0xbcaecee0	-0.02133888
224	0xbc33c3fb	-0.010972018
225	0xbd6321d6	-0.05545219
226	0xbd915f4f	-0.07098257
227	0x3d0f61cd	0.03500538
228	0x3bff53a6	0.007791954
229	0x3c826db4	0.015921451
230	0x3ccc32c0	0.024926543
231	0xbcc8cff2	-0.024513219
232	0x3c396107	0.011314637
233	0x3adcadfa	0.0016836517
234	0x3b5f5980	0.0034080446
235	0x3c8e43e6	0.01736636
236	0xbc9c452f	-0.019075958
237	0xbd41f52b	-0.04735295
238	0xbcc352bc	-0.023843162
239	0xba49ce80	-0.00076983124
240	0x3d28b39a	0.041186906
241	0xbc98b982	-0.018643145
242	0xbcfe35ed	-0.031031573
243	0xbda6368a	-0.08115871
244	0x3d02dd90	0.03194958
245	0xbca16ea5	-0.01970608
246	0x3cab8e0e	0.02094176
247	0x3cfbad30	0.03072223
248	0xbd4a5f6b	-0.049407404
249	0xbd4f7d28	-0.050656468
250	0xbcf9c8c1	-0.030491235
251	0xbd1ba77b	-0.03800152
252	0xbce469d8	-0.027882501
253	0xbd3f721a	-0.046739675
254	0x3d252e8f	0.040327605
255	0xbc22523e	-0.009907303

fc2.weight f4 [256, 256]
0	0xbdec3e15	-0.11535279
1	0xbd142e95	-0.036177237
2	0xbc1d0ba3	-0.009585294
3	0x3df804da	0.121103
4	0x3d34eeb4	0.044172958
5	0x3ce3fae3	0.027829593
6	0x3d49e0b3	0.049286555
7	0x3caf1685	0.021373043
8	0x3c81b5d4	0.015833773
9	0x3c3c0606	0.0114760455
10	0x3d6f272d	0.05838697
11	0x3e07f34e	0.13276407
12	0x3b32fde4	0.0027311975
13	0x3d996fa1	0.07491995
14	0x3d0c819d	0.034303296
15	0x3d4ad892	0.049522944
16	0xbb070142	-0.0020600115
17	0xbd22ebeb	-0.03977577
18	0x3d5191b5	0.051164348
19	0xbd788d43	-0.060681593
20	0xbdd61e11	-0.104549535
21	0xbc99a568	-0.01875563
22	0x3c98a391	0.018632682
23	0xbd1d67aa	-0.03842894
24	0x3c85b0dd	0.016319687
25	0x3d29be0e	0.041441016
26	0x3e83c920	0.25739384
27	0xbce37348	-0.027764931
28	0xbd8df9d8	-0.069324195
29	0xbd33538a	-0.04378084
30	0xbe060a73	-0.13089924
31	0xbe1098fd	-0.1412086
32	0xbd699965	-0.057031054
33	0x3e9a34ad	0.30118313
34	0x3bb1ce24	0.005426185
35	0x3e115648	0.1419307
36	0xbd564012	-0.052307196
37	0x3d03fe24	0.03222479
38	0x3c8ab248	0.016930714
39	0xbd5dd7a0	-0.054160714
40	0xbdf398bb	-0.118943654
41	0xbcd677ca	-0.026180167
42	0xbb955758	-0.0045575313
43	0xbc9683d0	-0.0183734
44	0xbc95526c	-0.018227778
45	0x3bd18d19	0.006394994
46	0xbd44c7d7	-0.048042145
47	0xbcc8db7d	-0.024518723
48	0xbe1d36c1	-0.15352918
49	0x3d3a9580	0.04555273
50	0xbd499b6d	-0.04922049
51	0x3c6cf6a8	0.014463104
52	0xbd7c727d	-0.061632622
53	0xbd47864a	-0.048712052
54	0xbd6b84ac	-0.057499573
55	0x3cc02c54	0.023458637
56	0x3d687336	0.0567505
57	0xbc895b7d	-0.016767258
58	0xbd8f9bb4	-0.0701212
59	0x3d4ab0a0	0.04948485
60	0x3e5575b8	0.20845687
61	0x3d35df79	0.044402573
62	0x3d49bb26	0.049250744
63	0x3d0c142e	0.034198932
64	0x3c6584d8	0.014008723
65	0x3cfe62c7	0.03105296
66	0x3d62985a	0.055321075
67	0xbd493d97	-0.049131002
68	0x3db75bab	0.08953031
69	0x3d56a641	0.052404646
70	0x3cd80d2c	0.026373468
71	0xbcffa067	-0.031204415
72	0x3c4d7c1d	0.012541798
73	0x3d46cd65	0.048535723
74	0x3dbd6846	0.09248404
75	0xbdcbfb3c	-0.099600285
76	0xbcbb9770	-0.02289936
77	0x3cc3de62	0.023909751
78	0xbd59a7c9	-0.053138528
79	0x3cfebfdb	0.031097343
80	0xbad4b09d	-0.0016226951
81	0x3d13527d	0.03596734
82	0x3d338f2a	0.043837704
83	0x3d521fe5	0.05129995
84	0x3c8ed260	0.017434299
85	0x3e6017ee	0.21884128
86	0xbdcd223a	-0.10016294
87	0xbe96fdc1	-0.29490474
88	0x3d1b6323	0.03793634
89	0xbccec65c	-0.02524107
90	0xbd72057a	-0.059087254
91	0xbcbd8278	-0.023133501
92	0xbc89c995	-0.016819755
93	0xbdc6ed4a	-0.09713228
94	0xbd71bf07	-0.05902007
95	0x3e0cca64	0.13749081
96	0x3d111a5c	0.03542553
97	0xbe123704	-0.142788
98	0x3d392afd	0.045207012
99	0x3d76d789	0.060264144
100	0xb9ff1800	-0.00048655272
101	0x3c99c7d8	0.01877205
102	0x3c0e394a	0.008680651
103	0x3c93645b	0.01799219
104	0xbe20c824	-0.15701348
105	0x3d44c2a5	0.04803719
106	0xbcb6cc7b	-0.0223143
107	0xbd8d83e3	-0.06909921
108	0x3ca03846	0.019558083
109	0xbd5cc3ff	-0.053897854
110	0x3dd5c2e6	0.104375646
111	0xbc621c68	-0.013800718
112	0xbd39b50c	-0.045338675
113	0x3d0abef1	0.033873502
114	0x3d2f97bd	0.04286932
115	0xbd9d3f24	-0.07678059
116	0x3d75f3c2	0.06004692
117	0xbd0c1658	-0.034200996
118	0x3d43eecc	0.047835156
119	0x3b950dd6	0.0045487685
120	0xbd487c64	-0.048946753
121	0x3d4dbf8d	0.050231505
122	0xbcf9b418	-0.030481383
123	0xbd5578a6	-0.052117012
124	0x3d7e17fc	0.062034592
125	0x3d230b70	0.03980583
126	0x3ca92ee1	0.020652236
127	0xbe223962	-0.15842202
128	0xbb7fbefa	-0.0039023743
129	0x3d3c959c	0.046041116
130	0x3c99a880	0.018757105
131	0x3a50b0c1	0.00079609087
132	0xbd7abde2	-0.061216243
133	0x3d62a69c	0.055334672
134	0x3d19caee	0.037547044
135	0x3c1a8caa	0.009432951
136	0x3d460760	0.048346877
137	0x3d118125	0.035523552
138	0x3d98d64b	0.07462748
139	0x3bb1792f	0.0054160575
140	0xbbb81320	-0.0056175143
141	0x3c8e20ea	0.017349679
142	0xbc9593df	-0.018258987
143	0xbe9a7854	-0.30169928
144	0xbd21458d	-0.03937297
145	0xbd31d814	-0.04341896
146	0x3d422a15	0.047403414
147	0xbd4c1dfe	-0.04983329
148	0x3d5f7b6a	0.054561056
149	0xbc69923e	-0.014256058
150	0xbcaac82c	-0.020847403
151	0xbe2ba311	-0.16761424
152	0xbcfb4b3b	-0.030675521
153	0xbd84009c	-0.06445429
154	0x37b59c26	2.1649594e-05
155	0x3d2a04f0	0.041508615
156	0xbd47d926	-0.048791073
157	0x3d6091f3	0.054826688
158	0xbd3b8800	-0.045783997
159	0x3d93c9a6	0.07216196
160	0x3d3c3d46	0.045956872
161	0x3d3c29b7	0.04593822
162	0x3c4899b1	0.012243674
163	0xbd2e76b9	-0.04259369
164	0x3b766174	0.0037594708
165	0xbe751290	-0.23932862
166	0x3cd75821	0.02628714
167	0xbc559a1d	-0.013037232
168	0xbc186eb4	-0.009303737
169	0x3c0da9db	0.008646454
170	0x3c38f98c	0.011289965
171	0xbd36ad1a	-0.044598676
172	0x3cadd4c8	0.021219626
173	0x3df66592	0.12031092
174	0x3d2c730c	0.042101905
175	0xbd3580f4	-0.044312432
176	0x3d164f0d	0.036696482
177	0x3e03056f	0.12795042
178	0x3d547804	0.05187227
179	0x3d58de31	0.052946273
180	0x3d0f2167	0.034943964
181	0xbdedfaa4	-0.116200715
182	0x3d82034e	0.063482866
183	0x3d0009dc	0.031259403
184	0xbe436dc1	-0.19084837
185	0xbda023ba	-0.07819314
186	0xbe527876	-0.20553765
187	0xbcee20bc	-0.029068343
188	0xbd4c0a7c	-0.049814686
189	0xbd626b0a	-0.05527786
190	0x3c82ec9c	0.015981965
191	0x3c7332a0	0.014843613
192	0xbc595794	-0.013265509
193	0xbc21cf50	-0.009876087
194	0x3c816da7	0.015799357
195	0x3d7b6d36	0.06138345
196	0xbd863fa2	-0.06555106
197	0x3c58d171	0.0132335285
198	0x3e4b7255	0.19867833
199	0x3e818e31	0.25303796
200	0x3bd3c857	0.0064630914
201	0x3dee398f	0.11632072
202	0xbd2bd5bd	-0.041951884
203	0x3cc528a0	0.024067223
204	0xbd2bf441	-0.041980986
205	0xbce5f43c	-0.028070562
206	0xbd490092	-0.04907281
207	0x3d29e432	0.04147739
208	0xbdcf89c3	-0.10133698
209	0x3b3c1280	0.002869755
210	0xbdc37125	-0.09543065
211	0x3d3c344e	0.04594832
212	0xbd1f7ced	-0.038937498
213	0xbc3a4a20	-0.011370212
214	0x3b9d4279	0.004799184
215	0x3cc348c3	0.023838406
216	0xbde6b718	-0.11265391
217	0xbe76df4b	-0.24108617
218	0xbc078024	-0.008270297
219	0x3bea1340	0.007143408
220	0x3d1d3f2e	0.03839033
221	0x3cba1346	0.022714268
222	0xbdffb4d9	-0.12485666
223	0xbd9728e1	-0.07380844
224	0x3db1b2bc	0.08676669
225	0x3cc02bd6	0.023458403
226	0x3c434c31	0.011920021
227	0x3eeb4a9e	0.45955366
228	0xbc9de3a8	-0.019273594
229	0x3d3d9828	0.046287686
230	0xbcde5e44	-0.027144559
231	0xbd5b5fea	-0.053558268
232	0xbd471f67	-0.048613932
233	0xbd3a020f	-0.04541212
234	0xbd5a343c	-0.05327247
235	0xbd7b2bba	-0.061320998
236	0xbd49ba53	-0.04924996
237	0x3ca91033	0.020637607
238	0x3d1882fd	0.037234295
239	0xbd47f226	-0.048814915
240	0x3c539e4b	0.012916158
241	0xbd656df4	-0.056013063
242	0xbb3feb65	-0.0029284593
243	0x3dbf74f2	0.093484774
244	0xbd2a5cc9	-0.041592393
245	0xbd6cc355	-0.05780347
246	0xbd3c1829	-0.04592148
247	0x3d706160	0.058686614
248	0xbcdbc531	-0.026827427
249	0x3e4e18f2	0.20126703
250	0x3d07c376	0.03314539
251	0xbd6c142d	-0.05763643
252	0xbd72c7fc	-0.05927275
253	0xbd7f3b22	-0.062312253
254	0xbe3cc07a	-0.18432799
255	0x3d34f9ff	0.044183727

fc2.bias f4 [256]
0	0xbd3b8a7d	-0.04578637
1	0x3da5056d	0.080576755
2	0x3d801410	0.062538266
3	0x3c81ad2b	0.015829643
4	0xbdee6d9e	-0.116420016
5	0x3d957c30	0.072990775
6	0x3d8074e9	0.06272299
7	0x3dcbfd32	0.099604025
8	0x3e2b8782	0.16750911
9	0xbda81b04	-0.08208278
10	0xbd6a721e	-0.057237737
11	0x3e3976d5	0.18111737
12	0x3c56476a	0.01307855
13	0xbd83f5a2	-0.06443335
14	0x3eca8d9d	0.39561167
15	0x3e024cea	0.12724653
16	0x3c3e8477	0.011628262
17	0x3df9986f	0.121872775
18	0x3c9ca78a	0.019122858
19	0x3ca156b4	0.019694664
20	0x3ce7ca5f	0.02829474
21	0x3dc1b1e3	0.09457757
22	0x3c5af991	0.013365165
23	0x3cb6d504	0.02231837
24	0x3dfd7820	0.12376428
25	0x3e10a494	0.14125282
26	0x3d7623f0	0.060092866
27	0x3de912dc	0.1138055
28	0x3e4194b3	0.1890438
29	0x3d7c67ec	0.061622545
30	0x3e3533f1	0.17695595
31	0xbc9bdc63	-0.019025987
32	0x3d065d68	0.032803923
33	0x3cfce088	0.030868784
34	0x3ecf73ea	0.40518123
35	0x3d4aa963	0.049477946
36	0x3e5ec731	0.21755673
37	0x3bd562a0	0.006512001
38	0x3d500076	0.05078169
39	0xbd79f02f	-0.061020073
40	0x3bdb0709	0.0066841883
41	0x3d9210b4	0.07132092
42	0x3e13e8c7	0.14444266
43	0x3cd3d83b	0.025859943
44	0x3dad82e1	0.08472229
45	0x3ebbdcf6	0.36692017
46	0x3d9f5bd4	0.07781187
47	0x3d1e3a51	0.038629834
48	0x3d5995ed	0.053121496
49	0x3c3a3a32	0.011366414
50	0x3cc5d313	0.0241485
51	0x3eded83a	0.43524343
52	0xbda88485	-0.08228401
53	0x3d3a80b7	0.04553291
54	0x3d184809	0.037178073
55	0x3d9223d7	0.07135742
56	0x3df6e0ac	0.120545715
57	0x3ccfb4b7	0.025354726
58	0x3e94a83b	0.290346
59	0x3d25f42c	0.040516064
60	0x3e0fcad9	0.14042224
61	0xbcc4aca4	-0.024008103
62	0xbd8ef977	-0.069811754
63	0xbd0ea779	-0.034827683
64	0x3c77129b	0.0150801195
65	0x3e455302	0.19269946
66	0x3bfca00c	0.0077095088
67	0x3e975343	0.2955571
68	0x3ce899e3	0.028393691
69	0xba8468eb	-0.0010102069
70	0x3eb9724a	0.36220008
71	0xbd1336c2	-0.035940893
72	0x3daf1c12	0.08550276
73	0x3da3b6d9	0.0799386
74	0xbca57807	-0.020198835
75	0xbc562898	-0.013071202
76	0xbdca953b	-0.09891745
77	0x3e9150fc	0.283821
78	0xbd2f2bb1	-0.042766277
79	0x3dcd169f	0.1001408
80	0x3eaf1d44	0.34202015
81	0x3d8bdf0f	0.068296544
82	0x3d587553	0.052846264
83	0x3d046502	0.03232289
84	0x3df8e143	0.1215234
85	0xbcc13151	-0.023583086
86	0xbdb2b166	-0.08725242
87	0xbd63c997	-0.055612173
88	0x3d631832	0.055442996
89	0x3d19a714	0.037512854
90	0x3e04d990	0.12973619
91	0xbce9e5ce	-0.028551962
92	0x3eb42ce2	0.35190493
93	0x3e208d13	0.15678816
94	0x3de7ac35	0.11312143
95	0xbd6f7652	-0.05846245
96	0x3d0a0078	0.033691853
97	0xbc967e88	-0.018370882
98	0x3dbba8df	0.09163069
99	0xbe0c60e6	-0.13708839
100	0xbc1094c8	-0.008824535
101	0x3dbe4780	0.09290981
102	0xbce56531	-0.028002353
103	0xbcb2c7a9	-0.021823721
104	0x3c52a7df	0.012857406
105	0x3d1d1fba	0.038360335
106	0xbcb12f89	-0.021629112
107	0x3da1db78	0.079031885
108	0xbca72955	-0.02040545
109	0x3cfe8c14	0.031072654
110	0x3d2e3139	0.04252741
111	0x3d847608	0.06467825
112	0x3b3c97b0	0.0028776936
113	0xbdbe006c	-0.09277424
114	0x3d1de4b8	0.0385482
115	0x3e019e76	0.12658104
116	0xbc3cdaa5	-0.011526738
117	0x3dcc2436	0.09967844
118	0x3de10a8a	0.10988338
119	0x3c0a54c8	0.008443065
120	0xbc30b64e	-0.010785652
121	0xbd3dd489	-0.046345267
122	0x3ea7142d	0.3263258
123	0x3d33c93b	0.04389308
124	0xbc2269b7	-0.0099129
125	0xbee86f46	-0.45397395
126	0xbd64bf84	-0.055846706
127	0x3e38f649	0.180627
128	0x3e3fb3da	0.18720952
129	0x3dc12c6d	0.09432302
130	0xbbeca4b4	-0.0072217826
131	0xbc16f6ba	-0.009214098
132	0x3e07a48c	0.13246363
133	0x3e483b1c	0.19553798
134	0x3d8d1954	0.068895966
135	0xbe890125	-0.26758686
136	0x3e3520c6	0.17688283
137	0x3cba25ce	0.022723105
138	0x3da007bc	0.07813975
139	0xbd87b154	-0.066256195
140	0x3ddf98e3	0.10917833
141	0x3dd2e65a	0.10297842
142	0x3e6d5e76	0.23180565
143	0x3cf9c664	0.030490108
144	0x3c405624	0.0117392875
145	0x3e713e32	0.23558882
146	0x3d78ef71	0.060775224
147	0x3da53824	0.080673486
148	0x3d4f4f61	0.05061281
149	0x3e29d6c2	0.1658583
150	0x3e24085c	0.16018814
151	0x3e14b9b8	0.14523971
152	0xbce72950	-0.028217942
153	0x3bb4886c	0.005509427
154	0x3d1c2323	0.038119446
155	0x3c96c84f	0.018406061
156	0x3e10aa9b	0.14127581
157	0x3cdd51c0	0.02701652
158	0xbd935b32	-0.071951285
159	0xbc7a2a3d	-0.015268859
160	0x3dab3e77	0.083615236
161	0x3e30dddb	0.17272131
162	0x3eceb8b8	0.40375304
163	0x3e17018f	0.14746688
164	0xbd04c5cf	-0.032415207
165	0x3e992735	0.29912725
166	0xbdb88678	-0.09010023
167	0x3cb69482	0.02228761
168	0x3d88534d	0.06656513
169	0xbc0e942b	-0.008702318
170	0x3e80878b	0.2510341
171	0x3d1672e0	0.036730647
172	0x3db93a73	0.090443514
173	0x3d51ce95	0.051222403
174	0xbd8bc6bb	-0.06825014
175	0xbd4c370d	-0.049857188
176	0x3e4942f3	0.19654445
177	0x3c46cfe7	0.012134529
178	0x3e134fbc	0.14385885
179	0x39889145	0.00026048176
180	0x3ca3975c	0.019969635
181	0x3df089d6	0.1174504
182	0xbebb6488	-0.36600137
183	0x3e96a15c	0.29419982
184	0x3c7e25c4	0.015511934
185	0xbcf06ef6	-0.029349785
186	0x3dfb98d1	0.12285007
187	0x3d9dfbb9	0.07714028
188	0x3e137768	0.14401019
189	0xbd5a7e62	-0.053343184
190	0x3d85c1d8	0.065311134
191	0x3d99b8a3	0.0750592
192	0xbd51c859	-0.051216457
193	0xbda44bf4	-0.080222994
194	0xbd01163d	-0.03151535
195	0x3d7cd80e	0.061729483
196	0x3e25ab6c	0.16178674
197	0x3e345487	0.1761037
198	0x3e3328a6	0.17495975
199	0x3e554a5b	0.20829146
200	0xbeda7258	-0.42665362
201	0x3ca848b5	0.020542482
202	0x3c1e3855	0.009656985
203	0xbc0e67c9	-0.0086917365
204	0x3e978605	0.29594436
205	0x3e5d6c4d	0.21623345
206	0xbc8001b6	-0.015625816
207	0x3db84306	0.08997159
208	0x3e0119bb	0.12607472
209	0x3e2bfb92	0.16795185
210	0xbccf6191	-0.025315078
211	0x3e94f4a9	0.2909291
212	0x3e17530a	0.1477777
213	0x3e2d4a0e	0.16922781
214	0x3a6db1aa	0.00090673065
215	0xbd9b4bcf	-0.07582819
216	0x3d04cefa	0.03242395
217	0x3ca4f6e4	0.020137258
218	0xbc6828ee	-0.014169915
219	0xbc9e7edb	-0.019347599
220	0x3c96da82	0.01841474
221	0x3e004ade	0.1252856
222	0xbe101560	-0.14070654
223	0x3e0a2826	0.13491878
224	0x3d4fd1dd	0.05073725
225	0x3d4584af	0.04822224
226	0x3e6a86fe	0.22903058
227	0x3e080706	0.13283929
228	0xbd1a662b	-0.03769509
229	0x3e3fd4a1	0.18733455
230	0x3e5c010a	0.21484771
231	0xbd4eb603	-0.05046655
232	0x3d48c0f4	0.04901214
233	0x3d8fd04d	0.07022152
234	0x3cf08bac	0.029363476
235	0xbd04c446	-0.032413743
236	0x3e28a717	0.1646999
237	0xbdc97942	-0.09837581
238	0x3db7d6b0	0.08976495
239	0x3e4c1cd3	0.1993287
240	0x3e7cb80e	0.24679586
241	0xbdf19a3e	-0.117969975
242	0x3df6c977	0.12050145
243	0xbc8c01c8	-0.017090693
244	0x3e04aa27	0.12955533
245	0x3dd0ef62	0.10201909
246	0xbd9e15d4	-0.07719007
247	0x3a89f84f	0.0010526272
248	0x3d70fd2d	0.058835197
249	0x3d4b880e	0.0496903
250	0xbd206e42	-0.03916765
251	0x3db58f81	0.08865262
252	0x3d96e566	0.07367973
253	0xbcc4142a	-0.023935396
254	0x3e9a71b8	0.30164886
255	0x3cf3f3aa	0.029779274

fc3.weight f4 [18, 256]
0	0x3d5daf04	0.054121986
1	0xbdab52c5	-0.083653964
2	0x3d0b8366	0.03406086
3	0x3d274644	0.040838495
4	0xbd368a08	-0.04456523
5	0xbd164c20	-0.036693692
6	0x3ceee5c4	0.029162295
7	0x3d303941	0.04302335
8	0xbd5c6b5a	-0.053813316
9	0x3c72641f	0.014794379
10	0x3c036b64	0.008021209
11	0xbcaa4fc5	-0.02078999
12	0x3cf89ac0	0.030347228
13	0xbd4eb7c2	-0.050468214
14	0x3ca69191	0.020333083
15	0x3cb54552	0.022127781
16	0xbd1ec88e	-0.038765483
17	0x3cc63ca8	0.024198845
18	0xbc6ac403	-0.014328959
19	0xbd27bc97	-0.040951338
20	0x3bdb0fc0	0.006685227
21	0xbd69c941	-0.057076696
22	0xbd68a0b8	-0.0567939
23	0x3c6f3178	0.014599197
24	0x3da1756c	0.078837246
25	0xbcf9ce9b	-0.030494025
26	0xbcbe4291	-0.0232251
27	0xbc9a8219	-0.018860864
28	0x3b4b5266	0.0031024455
29	0x3c6655df	0.014058559
30	0xbda306e2	-0.07960297
31	0x3bb57db6	0.0055386676
32	0x3d71915f	0.058976527
33	0xbceaac1d	-0.028646523
34	0x3ce8cc22	0.02841765
35	0x3d54bba6	0.051936768
36	0xbc27b4ae	-0.0102359485
37	0xbd8cffe6	-0.06884746
38	0xbb77f595	-0.0037835587
39	0x3abde250	0.0014487002
40	0xbc560604	-0.013062958
41	0xbd9394cc	-0.07206115
42	0xbc6ff3fa	-0.014645571
43	0xbd9bff0c	-0.07617006
44	0x3b24b685	0.0025133204
45	0x3b12002c	0.0022277934
46	0xbc1bf7e5	-0.009519552
47	0xbd781ab7	-0.060572352
48	0xbc96f943	-0.018429404
49	0x3c326157	0.010887465
50	0x3ce7e7df	0.028308807
51	0xbc63f552	-0.013913469
52	0x3ced1434	0.028940298
53	0xbdb21f25	-0.086973466
54	0xbd2074a1	-0.039173726
55	0xbc3b5e52	-0.011436062
56	0xbca84c63	-0.020544237
57	0xbd35578f	-0.044272956
58	0x3da98455	0.082771935
59	0x3c764e08	0.015033253
60	0xbd884438	-0.06653637
61	0x3c59c436	0.013291409
62	0xbc3fb1a2	-0.011700066
63	0xbd5ac4ea	-0.053410448
64	0x3ca0df36	0.019637685
65	0xbd4ac1ab	-0.049501102
66	0x3c75de5a	0.015006626
67	0x3bddc2e6	0.0067676185
68	0xbb303208	-0.002688529
69	0xbd2d4784	-0.04230453
70	0xbd2d9faa	-0.042388596
71	0xbd63611f	-0.055512544
72	0x3d5dab6e	0.054118566
73	0xb79a9f1e	-1.8432325e-05
74	0x3c9a320a	0.018822689
75	0xbcfe9320	-0.031076014
76	0x3bf5af5e	0.007497712
77	0x3bf1feff	0.007385134
78	0xbd1ad7ee	-0.037803583
79	0xbd1131e9	-0.03544799
80	0x3b10bb21	0.0022084194
81	0x3c87c5fd	0.0165739
82	0xbb7150cf	-0.0036821847
83	0xbdc8db5b	-0.09807464
84	0x3d0e63fd	0.034763325
85	0xbd58a6db	-0.0528935
86	0x3cd55afc	0.026044361
87	0xbd1bfc52	-0.03808243
88	0x3d801cde	0.06255506
89	0xbd00e3f9	-0.03146741
90	0x3cfcd29c	0.030862145
91	0x3c320438	0.010865264
92	0x3cd7e61c	0.026354842
93	0x3da095ae	0.07841049
94	0x3d365fe4	0.044525042
95	0x3c1003d4	0.008789975
96	0x3cb23654	0.021754421
97	0x3b9fcf2e	0.0048769927
98	0xbc5b733a	-0.013394171
99	0x3c35f897	0.011106632
100	0xbd196d48	-0.037457734
101	0xbcb3cd14	-0.021948375
102	0x3d0175af	0.031606372
103	0x3d5459a1	0.05184329
104	0x3cd06ba0	0.025441945
105	0xbd721a76	-0.059107266
106	0x3d3aec53	0.045635533
107	0xbb4d9132	-0.003136706
108	0x3d0e0dbe	0.034681074
109	0x3cf4f37e	0.029901262
110	0xbb69abf3	-0.0035655468
111	0xbddd4ad5	-0.10805289
112	0xbc9c8699	-0.01910715
113	0xbcb230f2	-0.021751855
114	0xbd1a9a5f	-0.037744876
115	0xbc2aaf13	-0.0104177175
116	0xbd27c6eb	-0.040961187
117	0x3c2858f9	0.010275119
118	0xbd06349f	-0.032765027
119	0xbc44c76c	-0.0120104365
120	0xbbadc957	-0.0053035426
121	0xbd82d809	-0.06388862
122	0x3d6474e2	0.05577553
123	0x3c74e27c	0.014946576
124	0x3cbd088d	0.023075366
125	0xbcce7fac	-0.025207363
126	0xbc01f969	-0.007932999
127	0xbcd5e9d5	-0.026112476
128	0xbcc4132c	-0.023934923
129	0xbc45ff49	-0.0120847905
130	0xbd30cb57	-0.04316267
131	0x3d13904f	0.036026295
132	0x3b69b446	0.003566043
133	0xbda1b720	-0.078962564
134	0x3caebb1b	0.021329453
135	0xbd110941	-0.035409216
136	0xbd806a14	-0.06270233
137	0x3d1949f8	0.037424058
138	0x3c32e194	0.01091804
139	0x393d26c1	0.00018038882
140	0xbd1cac3b	-0.03825019
141	0xbc9274fb	-0.017878046
142	0xbb966a4b	-0.004590308
143	0x3c9ae24e	0.018906739
144	0xba91942e	-0.0011106783
145	0x3cd893b8	0.026437625
146	0x3cb69c42	0.022291306
147	0x3d56e527	0.05246463
148	0xbc3f3fe9	-0.011672952
149	0xbd4559dc	-0.0481814
150	0xbdb0a248	-0.08624703
151	0xbd8a058b	-0.067393385
152	0xbd0c8df1	-0.034315053
153	0x3c344308	0.01100231
154	0xbd2f524e	-0.0428031
155	0x3d067816	0.032829367
156	0x3cb72a53	0.022359049
157	0xbd20f352	-0.03929455
158	0x3c2c6f79	0.010524624
159	0x3d26ce51	0.040724102
160	0xbcefb72c	-0.029262148
161	0xbd6f0f41	-0.058364157
162	0x3cde47b8	0.027133808
163	0x3d0895aa	0.033345856
164	0xbca473ed	-0.020074809
165	0x3d03d9cf	0.03219014
166	0xbd175f93	-0.03695638
167	0xbb731855	-0.003709336
168	0xbc9f2028	-0.019424513
169	0xbc7b589e	-0.015340952
170	0xbc0b31dc	-0.008495774
171	0x3c86ef86	0.016471636
172	0xbd5b9f62	-0.053618796
173	0x3c4da59f	0.012551694
174	0xbca29766	-0.019847583
175	0xbdb8b8e1	-0.09019638
176	0xbceeed82	-0.029165987
177	0x3c52a42a	0.012856523
178	0xbcbcc4ed	-0.02304312
179	0xbbb7bc30	-0.0056071505
180	0xbcae8810	-0.021305114
181	0xbd15ea63	-0.03660048
182	0x3d05e9b2	0.032693572
183	0xbc7ef75b	-0.015561904
184	0xbd5dd4b1	-0.054157916
185	0xbda64ece	-0.081204996
186	0xbd95ee70	-0.07320869
187	0x3c973b02	0.018460754
188	0xbc92b132	-0.017906759
189	0x3cf82eaa	0.030295689
190	0xbc3464d3	-0.0110103665
191	0xbda8850a	-0.082285
192	0xbd2edbe0	-0.042690158
193	0x3d6e79e3	0.05822171
194	0xbcc5a0f2	-0.024124596
195	0x3c207b2d	0.009794992
196	0x3c8cdff8	0.01719664
197	0x3b3da05c	0.0028934693
198	0x3c3db74c	0.011579346
199	0xbc983f86	-0.018584978
200	0xbcdc5176	-0.026894312
201	0xbd6939d0	-0.0569399
202	0xbd9c1089	-0.07620341
203	0xbcc42b99	-0.02394657
204	0xbd2d9f14	-0.042388037
205	0x3c315477	0.010823361
206	0xbcc9c1bf	-0.024628518
207	0xbc622190	-0.013801947
208	0xbc43f986	-0.0119613465
209	0x3c5479aa	0.01296846
210	0x3bd15502	0.0063883075
211	0x3c8ea93b	0.01741468
212	0xbb4bc231	-0.003109109
213	0xbc74f24a	-0.014950344
214	0xbcd7426b	-0.026276788
215	0xbd0ecee7	-0.034865286
216	0x3d2be3db	0.041965347
217	0xbc610142	-0.01373321
218	0xbc59e638	-0.013299517
219	0xbd0ecf2b	-0.03486554
220	0xbd30f9c2	-0.043206938
221	0x3d12f786	0.035880588
222	0xbd002ee3	-0.031294715
223	0xbdc724f4	-0.09723845
224	0xbc5ed5d8	-0.013600789
225	0xbcce34d0	-0.025171667
226	0x3d5e0c88	0.05421117
227	0xbdaeffca	-0.08544882
228	0x3d06fc7d	0.032955635
229	0x3d07da25	0.033167023
230	0x3895b882	7.139241e-05
231	0xbdfd59d2	-0.123706475
232	0x3c1526b0	0.009103462
233	0xbd7b14af	-0.061299022
234	0xbd6d40d3	-0.05792315
235	0xbd713f19	-0.058898065
236	0xbc67061d	-0.014100579
237	0xbba99673	-0.0051754056
238	0xbce30725	-0.027713368
239	0x3db60753	0.08888116
240	0xbd025a34	-0.031824306
241	0x3b3873ec	0.0028145267
242	0xbdb19b9e	-0.0867226
243	0x3d0aadbd	0.033857096
244	0xbd5c2cb3	-0.053753566
245	0xbd0eabd5	-0.03483184
246	0xbc6f4e75	-0.014606108
247	0x3cd24a42	0.025670175
248	0xbcbcb53d	-0.02303564
249	0x3d84a0a5	0.06475953
250	0xbc1d5ab4	-0.009604145
251	0xbb441c97	-0.0029924267
252	0xbd62bed8	-0.055357784
253	0xbc7607af	-0.01501648
254	0x3ca2bea7	0.0198663
255	0xbd35926e	-0.0443291

fc3.bias f4 [18]
0	0x3e5b58cd	0.21420594
1	0x3e2aa418	0.1666416
2	0x3e7ccbe6	0.24687156
3	0x3e919b10	0.28438616
4	0x3eb5cf97	0.3550994
5	0x3ec35508	0.3815081
6	0x3e8589f4	0.26081812
7	0x3ed2d062	0.41174608
8	0x3eb58568	0.35453343
9	0x3ecff165	0.40613857
10	0x3d506fb2	0.05088777
11	0x3e3b7939	0.18307962
12	0x3e64c886	0.22342119
13	0x3e69734a	0.22797886
14	0x3de8f273	0.113743685
15	0x3ea0dc90	0.31418276
16	0x3e9b1574	0.30289805
17	0x3ebd7ab8	0.3700769
