net/net_boxing-v5_doubleDQN_final_2_target.pth (torch, 546647 bytes, 6 tensors)

fc1.weight f4 [256, 256]
00000000: 0a3b b43b 68f8 c3bc 7000 c0bc b27b f2bb
00000010: 2eaa 6bbd bb9d 01be c349 203b 3614 173d
00000020: c42b e7bb f00d 30bd 6652 81bc dfc6 ebbc
00000030: dfa7 743b e88d 6fbc d7ec 1bbb 2077 75bd
00000040: 0f11 14be d171 d53c 0b06 56bd a84a e23c
00000050: 5454 31bd 062d 91be 6a21 93bd 385d 66bd
00000060: c421 fbbd ea6c 6ebd 592e d3bd 50e5 66bd
00000070: ab31 e3bd e871 e03c b7d7 9ebc 42fc 2c3d
00000080: e954 033e 6000 4bbc 9a41 873e 1b02 9cbe
00000090: 667d 663d fbb5 d5bc 9ae0 5c3d 8e7f 2bbb
000000a0: 1a60 483d 1902 e63c 38f3 55bc 84a8 23bd
000000b0: 6814 1a3c 6f29 c8bc 4ff9 11bd ce35 29bf
000000c0: 5ea0 90bd d19c 9cbe 8310 91bd 8316 7dbd
000000d0: c20b 34bd db3b 2cbf 70e3 8bbc 6335 633d
000000e0: c6eb 773f feb9 dbbd 9a60 3b3d 8ec5 a13d
000000f0: 878c 7cbf fac2 eebd 80af aa3b c544 183e
00000100: 95f1 08be b0c2 923e 864d 4d3e 3f33 dc3d
00000110: 8e92 3e3e f3ba 69be 43b6 16be 0017 48be
00000120: 562c a2be 6c12 8d3c 7554 4dbd a50f 5ebd
00000130: a434 7dbd 0b63 473d fd47 67bd 900b 2ebd
00000140: bec9 22bd 7d48 53be d197 7e3d 14ec b4be
00000150: 504f 92be 7db3 34bd ecd5 95bc aa6c 213d
00000160: 244b a8bd 8d0f 3ebd 2ce3 77bd cfb8 ac3e
00000170: c061 1ebe ec6f d13c ba9e 55bd 1ba8 913b
00000180: 65c2 d43d 601c 4f3d 8e9f 3b3d 367d b9be
00000190: c000 cdba 20a3 073d ec09 5a3d fed9 263d
000001a0: 2c0a 18bd e6a7 793d 2c98 c73c d19c 4a3e
000001b0: d0b3 aabc 9768 94bd 8047 ec3c 04a2 7abc
000001c0: ec0b 2a3d 9fa7 16bd e2bf 203d c426 c7bc
000001d0: 00a5 cdba a1b2 51bd 6217 25bd 605b 0c3c
000001e0: a47d 013d 8031 5eb7 390b 22be 759d 37bd
000001f0: 5cbf b03c 0844 1ebd bc2a 95bd 89ed edbb
00000200: 0fba 7b3c 0080 c5b9 e0c6 fbbb 800b 1d3a
00000210: e8cf 73bc cb51 55bd e0c1 1abd 5805 29bd
00000220: 4815 a83c e0ec 663d e483 4cbd 9aa7 71bd
00000230: 6277 0abd e6b9 753d e0e0 b63c af41 883d
00000240: d69a bb3d 996f 2e3e c449 c7bb fdad b1be
00000250: dc28 6ebd 9ac8 bf3d 7194 cfbd 10d5 e53b
00000260: 3db9 d8bd 0063 80bb b6f3 0c3c 4c0f 4fbd
00000270: 01cf cc3c e4cb 303d 1724 d1bc 88e6 043c
00000280: b345 3b3c d23f 2abe 5785 1a3f fd6f 9cbe
00000290: c25a 68bd caaa 1e3d 6ede 3ebd 0010 e6ba
000002a0: 1832 74bd f0c5 8f3c 00a6 9939 fc15 313d
000002b0: b010 2c3c 40e3 49bd c395 ddbb 14e0 f4be
000002c0: f8c6 f53c 9e9f d83e c622 0a3d 9311 ab3e
000002d0: 4811 893c caa2 12bf ec9d 693d ac45 b23e
000002e0: adb7 6d3f 24c2 a63e 8021 1f3c eab7 3dbf
000002f0: 3daf 993e 6fab 87be 2c07 ee3c 859e 5b3e
00000300: 65a4 ebbc ae70 043f b874 1b3f 8638 023f
00000310: 86ed 0f3f cf84 79be 3f65 b2be ebf3 acbe
00000320: f58f b6be 00e4 b93d 4278 623f bb74 29bd
00000330: c06a 09bc 9217 443d aec6 e93d 416d 4b3e
00000340: 4c5d 24bd 19fe 2fbe d0e6 c33e fb7d 0cbf
00000350: 2d99 d3bd 8033 483b 0001 fbb9 4e81 9c3c
00000360: 9313 48bd b047 e33b 6990 a6bd 68d5 d3be
00000370: c0f6 09be 624e 8dbc 1e37 6a3a 1d55 5e3d
00000380: 4ad1 833d cd73 bebd 8a19 0c3e fc07 bcbc
00000390: ae35 583d 5c23 073c 80bc 1cbb 74c4 b73c
000003a0: 6c45 a83c 9512 8a3c 1226 193d 1739 75bd
000003b0: 2c21 0b3d f2c5 1ebd 30f0 883b 7606 0a3c
000003c0: 9876 7dbd bf1c 593d 105b 8e3c 7862 883c
000003d0: e828 8ebc b80f 933c c08b 723c 1c62 35be
000003e0: d89a f0bc 787c ff3c b15c d6bc f8db b5bc
000003f0: 82df 143d f46b 033d 1e30 46bd 986f e33c
0.005500202 -0.02392216 -0.023437709 -0.0073999995 -0.057535343 -0.12657826 0.0024458028 0.03688451
-0.007054778 -0.04298204 -0.015786361 -0.028781353 0.0037331504 -0.014621235 -0.002379229 -0.05992806
-0.14459632 0.026055248 -0.052251857 0.02762349 -0.043293312 -0.28354663 -0.071841076 -0.056241244
-0.122623 -0.058209337 -0.103115745 -0.056371033 -0.11093458 0.027398065 -0.01938997 0.04223276
0.1282536 -0.012390226 0.26417238 -0.30470356 0.056271933 -0.026087752 0.053925134 -0.0026168558
0.048919775 0.028077172 -0.013058476 -0.03995563 0.009404279 -0.02443382 -0.03563815 -0.66097724
-0.070618376 -0.3058839 -0.070832275 -0.061789047 -0.043956526 -0.6727883 -0.017076224 0.055470835
0.96844137 -0.107288346 0.045746423 0.07899009 -0.9865193 -0.116582826 0.0052089095 0.14869983
-0.13373406 0.2866416 0.20049104 0.10751962 0.18610594 -0.22825222 -0.14717965 -0.19540024
-0.3167445 0.017220698 -0.050129373 -0.05421414 -0.06181778 0.04867844 -0.056465138 -0.042491496
-0.039743178 -0.20633121 0.062156502 -0.35336363 -0.28576136 -0.044116486 -0.018290482 0.03941027
-0.08217457 -0.04640155 -0.060519382 0.33734748 -0.15466976 0.025566064 -0.052153327 0.0044450886
0.1038864 0.05056417 0.04580646 -0.3622834 -0.0015640482 0.033114552 0.05323212 0.040735237
-0.037119076 0.060951136 0.024364553 0.19786383 -0.020837694 -0.072465114 0.028842688 -0.015297417
0.041515276 -0.03678095 0.039245494 -0.024310477 -0.0015689433 -0.051195744 -0.040305503 0.008566707
0.03161396 -1.3243756e-05 -0.15824594 -0.044827897 0.021575622 -0.0386391 -0.072835416 -0.0072609824
0.015364184 -0.00037670135 -0.00768362 0.00059907883 -0.014881112 -0.052079957 -0.03778255 -0.04126486
0.02051796 0.056378245 -0.04993047 -0.058997728 -0.03380526 0.05999174 0.022324026 0.06653153
0.09160392 0.17034759 -0.0060817916 -0.34703055 -0.058144435 0.093644336 -0.10135735 0.0070139244
-0.105822064 -0.0039180517 0.008603027 -0.050551698 0.02500105 0.043163195 -0.025529904 0.008111604
0.011430192 -0.16625908 0.6035971 -0.3055419 -0.05672718 0.038737096 -0.046598844 -0.0017552376
-0.059618086 0.017550439 0.00029306114 0.043233857 0.0105020255 -0.049288988 -0.0067622378 -0.47827208
0.030002102 0.42309278 0.03372457 0.33411846 0.016731873 -0.57279646 0.05703537 0.3481878
0.9285839 0.32569993 0.009712577 -0.74108756 0.3001651 -0.2649798 0.029056154 0.21447189
-0.028764913 0.51734436 0.60724974 0.508675 0.56221807 -0.24367069 -0.3484287 -0.33779845
-0.35656705 0.09076691 0.8846475 -0.04137109 -0.008387268 0.04787404 0.11414848 0.19865896
-0.040128037 -0.17186774 0.38262033 -0.5487973 -0.1033195 0.0030548275 -0.00047875196 0.019104626
-0.048846792 0.006936036 -0.08133013 -0.41373754 -0.13473034 -0.01724929 0.00089346047 0.05428039
0.06436403 -0.09299431 0.13681617 -0.022953026 0.052785568 0.008248176 -0.0023916066 0.022432543
0.020540915 0.016854564 0.037389822 -0.0598689 0.033967182 -0.038762994 0.004179023 0.008424392
-0.061880678 0.05300593 0.017377406 0.016648516 -0.01735349 0.017951831 0.014803827 -0.17713207
-0.02937071 0.031187281 -0.026167246 -0.022199616 0.036345966 0.032085374 -0.048385732 0.027763173

fc1.bias f4 [256]
00000000: c628 b93c 3252 7dbc 661c 42bd f3e5 673d
00000010: 71b7 fb3b 11b3 2a3d 6697 403c 449e 3dbb
00000020: 3879 50bc aedb 37bd 7030 fcbc 7891 b83c
00000030: 0ac4 96ba b211 dabc 8f5f 44bd 154f 243c
00000040: eb83 453d 3dfc 2fbc a7c5 d13c a1fb 643d
00000050: 8dac e33c 1228 0d3c 55cf c63c 221d 403d
00000060: 5df8 163d 3cdc 0a3c 6695 9dbc 40d0 46bb
00000070: d682 ea3c 8467 e5bc c8d8 f7bc fe02 bf3c
00000080: 02ba e8bc c504 6b3d 12b4 533d d185 2b3c
00000090: cc7d 0ebd ea35 1d3d ac54 003d 00e5 e739
000000a0: 1276 96bd f1fa 823c 15d7 5bbd 1d80 1f3d
000000b0: 0697 ba3c 0b69 cfbc ebb0 43bd 533e 2cbd
000000c0: 03ae 4c3d c7d9 3cbd 2855 11bc a88e 64bd
000000d0: 2747 35bd 7d6a bdbc aa78 50bd 90dd f1bc
000000e0: 6eaf fbbc 92e2 86bd 3d4b 253d 0185 d1ba
000000f0: 927d 153d 1f85 973c cdbb 49bd 4ccc 973c
00000100: 3e1c 103d aab8 c2bc 36ac e83a 6afc 913b
00000110: b858 b9bc a520 56bd 46b1 4b3d 420c a03c
00000120: e58d 61bd a2ba 963d 6e45 95bc 02d2 083d
00000130: c2eb 543d e994 ffbc 5b5b 0d3d 0636 263c
00000140: 7c88 6fbc 91b3 5bbc 1d81 233d 9ab3 2d3d
00000150: 22a2 2a3d 3f54 86bd e7f4 15bc 122b ac3c
00000160: 4fc3 18bd 1693 aa3b 3a0d 2abd 9012 37bd
00000170: 3460 273d eea8 b83c fe3e f1bc a00d 9f3c
00000180: 4996 20bd 4cb9 a239 b863 b3bc 07eb dfbc
00000190: 4c6e 30bd 5c42 453d 0957 343d 52c2 493c
000001a0: 6336 ef3b dade 42bd 3011 18bd a481 033d
000001b0: 50e5 043b 6fe6 2e3d 3fb7 dbbc ad42 cdba
000001c0: 3a6e 1a3b a2b9 2b3d 199e 223d 584e 0f3d
000001d0: 8b36 1cbd cc33 5ebd 021d 3fbd 0981 ed3c
000001e0: e88d 65bd b3f0 32bb 6340 fa3c 3868 113d
000001f0: 1d2a f43c f904 863b 9d06 623d fb77 54bd
00000200: a669 553d 1a58 753c 70aa 103d e1cf 60bd
00000210: ade4 1ebd 5270 a53c 98c1 aebc 4752 393d
00000220: dfc3 953d 881f 8fbb 90fc 8fbc c074 933b
00000230: d049 bcbc db14 e9bc 9b3e b1bb 7735 2c3d
00000240: a883 da3b b230 063c 61d6 1e3d 021e 1a3d
00000250: e291 2a3d de35 ccbb 515b cebb 7183 a43c
00000260: d940 543c 4b70 36bd 89be 61bd ab70 31bd
00000270: 4234 503d 83a6 b13c 1ce5 58bd e6b9 d3bc
00000280: ddac d5ba 2af8 77bc ff1f 7cbd a010 5dbd
00000290: 58e8 553d 9919 4cbc 4e7c a33a 96e1 52bc
000002a0: fbfb b1bb 9a42 11bd 84ca 3b3d 79fd 68bd
000002b0: 3ca4 ea3c 9167 f7bc b1db 093d b2fb 85bc
000002c0: a2fa a1bc ebce 4a3d 1ab4 4ebd 3e8a e13c
000002d0: 42f0 9e3c f2b6 a4bc 2fc8 f3bb 6dde 293d
000002e0: 3c48 77bc be0b 76bd 35a0 bdbc 4a24 52bd
000002f0: 3be3 1abd b72d 5fbb 81df 04bd 2472 543c
00000300: 7cca d53c 18d2 05bb cfaa 0bbd 54bb c63c
00000310: be42 59bd e249 4bbd abac 003c bceb 07bd
00000320: bc51 0dbb 784f 233b 3209 54bd 5481 3b3c
00000330: 8280 423c a4b8 f6bc ec61 2f3c fe68 413d
00000340: 80a1 51bd 2d2f 3c3c 5b84 97bc 00fa 0c3c
00000350: 3505 d6bb 53f1 00bd 367a 213b a7c2 78bd
00000360: ae51 023b f8f6 723d 081b 76bc fa26 543d
00000370: 58bb a7bc 0ad9 5e3d 8a30 0cbd 45a0 d6bc
00000380: 5b4e 44bc cfa3 8ebd 87d0 f0bc 8471 31ba
00000390: 296c e63b 62d3 a93d 1b82 923c a628 c1bc
000003a0: 42aa 043d 6ede f8bb 1885 353b 43c2 9e3c
000003b0: 4605 533b 234b 3fbd 3547 e0bc 80ce 49ba
000003c0: 686f 253d adaa 4cbd f3c7 6dba bb07 96bd
000003d0: cb3a 093d 1a39 aebc 2d58 ea3c 2404 7c3d
000003e0: 0d55 40bd cce3 7abd 6a72 fdbc 0a0d 22bd
000003f0: d869 e4bc 5152 39bd ae3c 663d 005b 0fbc
0.02260245 -0.015461491 -0.047390364 0.05661578 0.00768178 0.041674677 0.011754846 -0.0028933445
-0.012724213 -0.044887237 -0.030784816 0.022530302 -0.0011502516 -0.026619766 -0.047942694 0.01002862
0.04822151 -0.010741291 0.025606943 0.055904035 0.02779224 0.008615511 0.024268785 0.046902783
0.03685795 0.0084753595 -0.019236278 -0.003033653 0.02862684 -0.028003462 -0.030254737 0.023316856
-0.028409008 0.057377595 0.0516854 0.010468916 -0.034787938 0.038381495 0.03133075 0.00044230372
-0.07346739 0.015988799 -0.053671915 0.038940538 0.022777092 -0.025318643 -0.047776144 -0.042051625
0.049970638 -0.046106126 -0.0088704005 -0.05580011 -0.04425731 -0.023122067 -0.050896324 -0.029524595
-0.0307233 -0.065861836 0.040354956 -0.0015985073 0.036496706 0.018496094 -0.049251366 0.018530034
0.035183184 -0.023769695 0.0017751518 0.004455139 -0.022625312 -0.052277226 0.049729608 0.019537095
-0.05506696 0.07359816 -0.018221583 0.033403404 0.05198265 -0.031198936 0.03451095 0.010144716
-0.014619943 -0.013409511 0.039918054 0.04240761 0.04165853 -0.065590374 -0.009152628 0.021016631
-0.037295636 0.0052055223 -0.04151652 -0.044695437 0.04086323 0.02254149 -0.029448982 0.019415677
-0.039205823 0.00031037105 -0.021898136 -0.02733375 -0.043073937 0.04815899 0.044028316 0.012314396
0.0073001846 -0.04757581 -0.037125766 0.032106057 0.0020278282 0.042700227 -0.026820777 -0.001566013
0.0023564235 0.04192508 0.039701555 0.034986824 -0.038137954 -0.054248616 -0.046658523 0.028992193
-0.056043535 -0.0027304112 0.03054828 0.03549978 0.029805237 0.0040899483 0.05518209 -0.051872235
0.052102707 0.014974618 0.035318792 -0.05488575 -0.0387923 0.02019516 -0.021332547 0.04524448
0.0731275 -0.0043677725 -0.017576486 0.0045000017 -0.022984415 -0.028452327 -0.0054090745 0.042043176
0.0066685267 0.008190321 0.038778666 0.037626274 0.04164303 -0.0062320074 -0.006297507 0.020082207
0.012954914 -0.044540685 -0.05511335 -0.04332034 0.050831087 0.021685844 -0.05295287 -0.02584548
-0.0016302128 -0.0151348505 -0.06155395 -0.053970933 0.052223533 -0.012457275 0.0012472959 -0.012871167
-0.0054316497 -0.035463907 0.04584743 -0.056882355 0.028642766 -0.030200751 0.03365678 -0.01635537
-0.019772831 0.04951374 -0.050464727 0.02753174 0.019401673 -0.020106766 -0.007439635 0.041471887
-0.015092906 -0.060069792 -0.023147682 -0.05130414 -0.03781436 -0.0034054348 -0.032439712 0.012966666
0.026097529 -0.0020419415 -0.034098443 0.024259247 -0.053042166 -0.049631007 0.007853667 -0.0331838
-0.002156361 0.0024919193 -0.05176658 0.011444408 0.011871459 -0.03011734 0.010704499 0.04721927
-0.05117941 0.011485857 -0.01849573 0.0086045265 -0.0065313824 -0.031480145 0.0024639494 -0.06073251
0.001988511 0.05931756 -0.015021093 0.051794983 -0.020475075 0.054406203 -0.034225978 -0.02619947
-0.011981572 -0.06964838 -0.029396309 -0.00067689293 0.0070319367 0.08292271 0.017884305 -0.023578953
0.032388933 -0.007594875 0.0027697738 0.01937974 0.0032199188 -0.046702515 -0.027377704 -0.00076983124
0.04038945 -0.049967457 -0.0009070627 -0.07325693 0.033503335 -0.021267463 0.028606499 0.061527386
-0.04695611 -0.0612524 -0.030938346 -0.039563216 -0.027882501 -0.04524452 0.056210212 -0.008749723

fc2.weight f4 [256, 256]
00000000: 101e bc3c 301a c4bc ad64 f4bb 09a1 313b
00000010: af8c adbd 3e3e 733d b9c6 c5bd 53db b3bb
00000020: d4b5 813c 006d 6bbd 0093 49bd 93d5 9d3d
00000030: 1288 0f3b 24ff 6ebd 0ef1 0a3e 9177 403d
00000040: c648 633d 2ccc 24bd d7bf 583d 3741 84be
00000050: 96d8 93be b3ca 72bb 1756 65bd aa67 1dbd
00000060: e835 b3bc ddd9 403d 1f3b 8d3e 4873 e3bc
00000070: c045 493e eb2b 72bd 80a6 72be 9185 60bd
00000080: 0278 7bbd 7c8b 993d aa94 1b3c 9c4d 6fbd
00000090: 1240 56bd 24fe 033d 13a8 dcbd a0d7 5dbd
000000a0: ede8 41bc d221 ccbc d1e0 593d 623e 41bd
000000b0: 0f67 8cbc 62b5 583d b894 35bd 8038 2abc
000000c0: 0f51 453d a9bb 0ebd 340d 33bd a8f6 6c3c
000000d0: 5ae3 85bd 2faf 37bd ac84 6bbd 5d16 dc3c
000000e0: 7bfc 6e3d 82bd 4dbd d7f4 ecbc 4557 433d
000000f0: 07ba fcbc f6b2 0f3e 22d2 533d 2e14 0c3d
00000100: d884 653c f04d ed3c 2639 663d 08fd 9dbd
00000110: 18a5 a03c 7193 8f3c 456e 083c bf2d 6cbe
00000120: 40ca 7e3c 7b19 0fbd ae32 36bd ba79 af3c
00000130: 5e15 17bb 25c0 d83d 3fa6 58bd 29ff 493d
00000140: f44e 143c 3a32 cb3d edb9 343d 3b52 c83d
00000150: 60d2 8e3c 6bd8 3a3d 8bf9 6bbd 57f6 853d
00000160: 1c3d 6a3e be67 e4bc 7a05 72bd 3a3f e5bc
00000170: 892e 81bc 586a 12bd 2b39 38be 9194 03be
00000180: 17c5 c3bb 0513 30be b78c 763d 8d5d 033e
00000190: 0018 ffb9 9252 893d 92b0 40bc ef75 c2bd
000001a0: d8fc 183c 4014 4e3d f90e 133d 4a4f 973b
000001b0: c3e9 32bb d30b 5bbd 682f 84bd 50fd f53d
000001c0: f6f5 eabc c175 6fbe 5038 1e3d 426d 11bd
000001d0: 4ac5 6d3d 7a83 103d dfe7 053d 0b6a 8abb
000001e0: d590 57bd 7fed 5cbc f36f e0bc a678 55bd
000001f0: fcd2 713d 30f1 903c 5195 9a3c fac2 343e
00000200: d51c 473c 9c95 3c3d 80a8 993c e350 ccbb
00000210: 92b2 7ebd da12 563d 6c46 513d 2067 93bd
00000220: c93c 9a3c 4b45 02bc b8f7 97bc 4d74 90bd
00000230: 2013 b8bb f848 8c3c 8399 5e3d e2cb 40bd
00000240: 704b 073e 3217 623d fd27 9b3b f28d 57bd
00000250: 7017 5e3d 653b bf3c 3951 a9bb 79d4 aabd
00000260: fbb3 febc 8e58 a9bd 1f15 2b3c 56a0 b1bd
00000270: 26d9 47bd 26c6 473d 0ab9 85bd 8c2f fe3b
00000280: 219d 713c d4e7 4b3d c054 31bd 6f3f abbe
00000290: 5e66 1abc 27ee e7bd 05ef e33c 482a f0be
000002a0: 3417 9a3c 52bb 8e3c 2d9a 3abe 3095 32bd
000002b0: 24a5 a53c cc57 0dbf dd0b 693d 38ac bd3d
000002c0: 5e7a 6e3d 9f8d 253d 9f20 643d 3c1d 6c3d
000002d0: 9e60 30bd 10cc b3bd 0786 9dbc d353 1c3d
000002e0: 08f5 35be f731 733b 71eb 95bd cd68 0fbd
000002f0: 2d41 35bd ecb3 023d ec1c 09bc f46f 67bc
00000300: 411f 6f3d b309 ab3c 2fd6 3fbd a4e2 6b3d
00000310: c8ab bcbe 0b62 213d ff9b 353d e21d 083d
00000320: 3e36 6d3c 2a7d bc3c e001 37bd e586 ec3c
00000330: 0859 1f3d 3cf4 e5bc 5d4c d7bc 32e4 293d
00000340: e4b6 b73d bfc6 233e dcfa 92be 4e34 3c3d
00000350: d7a6 50bb a11c 04bc 415b babc 2da8 eebb
00000360: 7ec6 753e 8be7 83bd 9762 2d3d 4013 ea3b
00000370: 2e3f 1d3d 3340 2f3d 70e7 18bd 3a07 3bbd
00000380: c410 38bd 2964 8ebe 0cb4 8f3d be0c 453d
00000390: 4c52 80bc ad03 d7bc b0e4 11bd 9fd4 59bd
000003a0: 905e 2dbe 19f6 49bc 27ee 72bd b6f5 fdbd
000003b0: a25c a23d 2e59 b23c 35fb 583d 26f2 47bd
000003c0: 7adc 6b3c 26e8 3b3d 07b2 0f3f 98d6 003d
000003d0: 0bc0 15bd 4e43 58bd 89cb 213d b395 0c3d
000003e0: 6a33 fbbc 8ee2 29be 636a f03c 9a33 b0be
000003f0: fcc7 72bd fc12 86bd ac06 55bc a1f9 213d
0.022963554 -0.023938268 -0.0074582906 0.002710404 -0.08474099 0.05938553 -0.09657044 -0.005488792
0.015833773 -0.057476997 -0.049212456 0.07706752 0.0021901173 -0.05834879 0.13568518 0.046989027
0.055489324 -0.040233776 0.052917328 -0.25831005 -0.2887618 -0.0037047088 -0.055990305 -0.03842894
-0.02187629 0.04708277 0.27584168 -0.027764931 0.19655514 -0.059123915 -0.23696327 -0.05481488
-0.061393745 0.07497308 0.0094958935 -0.058423623 -0.052307196 0.03222479 -0.10774245 -0.054160714
-0.011835319 -0.02491847 0.053192917 -0.047178634 -0.017138986 0.052907355 -0.044331282 -0.010389447
0.048173007 -0.034846935 -0.043713763 0.014463104 -0.065375045 -0.044844802 -0.057499573 0.026866132
0.058346253 -0.050229557 -0.028925342 0.04769065 -0.030850423 0.14033112 0.05171407 0.034198932
0.014008723 0.028967828 0.056206845 -0.077142775 0.019609973 0.01752636 0.008327072 -0.23064326
0.01555115 -0.03493641 -0.044481926 0.021420348 -0.0023053507 0.10583524 -0.05289292 0.049315605
0.009052027 0.09921689 0.044122625 0.09781309 0.017434299 0.04561655 -0.05761103 0.06541126
0.22874874 -0.0278815 -0.059087254 -0.02798425 -0.01576926 -0.03574595 -0.17990558 -0.12849642
-0.0059744227 -0.17194755 0.06019279 0.12828656 -0.00048655272 0.06705202 -0.011760848 -0.0949515
0.009337626 0.05031228 0.03590295 0.0046176063 -0.0027299977 -0.053478073 -0.064543545 0.12011206
-0.028681736 -0.23384763 0.038627923 -0.035504587 0.058049478 0.035281636 0.032691833 -0.004224067
-0.052628357 -0.013484358 -0.027397132 -0.052117012 0.0590391 0.017693132 0.018870028 0.17652503
0.01215287 0.046041116 0.018757105 -0.0062352284 -0.062182017 0.052264072 0.05109255 -0.07197404
0.018827813 -0.007951091 -0.018550739 -0.070534326 -0.0056175143 0.017124638 0.05434562 -0.047069438
0.13212371 0.055197902 0.0047349916 -0.052625604 0.05422157 0.023343751 -0.005167153 -0.08341307
-0.03109168 -0.082688436 0.010442047 -0.0867316 -0.048791073 0.048772953 -0.06529434 0.007757133
0.014746935 0.049781635 -0.043293715 -0.33446833 -0.00942382 -0.11324721 0.027823934 -0.46907258
0.018809892 0.017423306 -0.18222876 -0.043599308 0.020220347 -0.5521209 0.05689608 0.09261364
0.058222167 0.040418264 0.055695172 0.057645068 -0.04306089 -0.08779156 -0.019228948 0.03816588
-0.17769253 0.0037108639 -0.073202975 -0.035012055 -0.04425161 0.031909868 -0.008368712 -0.014125813
0.058379415 0.020878648 -0.04683512 0.05758919 -0.3684981 0.03940014 0.044338223 0.033231623
0.014478264 0.023008902 -0.044679523 0.028872916 0.038903266 -0.028070562 -0.02628153 0.04147739
0.089704305 0.15993784 -0.28707016 0.04594832 -0.0031837726 -0.008063466 -0.022748591 -0.0072832317
0.240015 -0.06440648 0.04233035 0.007143408 0.03839033 0.042785835 -0.03733009 -0.04566119
-0.044937864 -0.2781079 0.07016763 0.048107855 -0.015664242 -0.02624687 -0.035618484 -0.053181287
-0.16930604 -0.012326741 -0.05930915 -0.12400381 0.079278246 0.02177104 0.052973945 -0.048814915
0.014395827 0.04587569 0.56131023 0.031454653 -0.0365601 -0.05279856 0.039500747 0.03432245
-0.030664165 -0.1659033 0.029347604 -0.3441437 -0.05927275 -0.0654659 -0.013002079 0.039544705

fc2.bias f4 [256]
00000000: 74c0 ad3d fe12 233e 5fba 893e 4765 c3bd
00000010: 970c 69bd 4cea 803c 86bc 9d3b d4fd 5c3d
00000020: 127e 853e 93b2 97bd 48dc 773b fd30 c93c
00000030: 9a23 c7bb 6785 6abd f8ef a23c 6b7f 20bd
00000040: 6591 f43d 6d33 b33c cf08 653d c46b 6dbd
00000050: 20b7 3b3d 4ba5 92be 4a6d 06bb f07e 72bd
00000060: 105b 9c3c 4d73 ccbe 828e 513e 1a80 56be
00000070: 295a 04bd e8cd cd3e 5054 803c fa81 23bd
00000080: 93f0 b93c c334 90bd 5731 123f f1c0 663e
00000090: ba27 b13c c576 36bd 7096 8dbc aeb7 003d
000000a0: 8b72 3cbd 6a71 c53d 9cee 1a3e 6d5d e33d
000000b0: f139 853d f8fd 863e f36c 05bd 26f7 7ebd
000000c0: d14b cb3c e2c5 4d3d 0692 20bc e864 963c
000000d0: 0fab 31bd 4496 113d 8e23 86bb fb9c 2f3d
000000e0: 03ef 02bd 263c 773d d996 493e 63d9 94bd
000000f0: 6ee9 1e3d f44d f53a c68b b3bd 84be 83bc
00000100: 7649 58bd 25cb 89bd 02e6 c23c 84db 27bd
00000110: e46a e2bb aa38 33bd 7c91 963d da55 df3c
00000120: 17a7 1e3d 07ae f4bb b6a2 e53c 5268 573d
00000130: f1bd 5d3d a5b4 313e 215b d23c e309 1e3d
00000140: 5447 f63c f2f1 b8be 8557 f23c 0d70 f23d
00000150: 88a2 86bc 5aa5 63bc dcb9 d8bc 54ad 13bd
00000160: 522b a83b ed95 5b3d f8d0 d83c 6fa4 4a3c
00000170: 25c5 2a3d 3e3f 1a3d 54c6 c9bc adaa bcbd
00000180: 8cc7 ae3d 66d9 1e3b e316 a0bc eb82 893d
00000190: 67df 903e e002 633d f857 5a3c 9d81 08bd
000001a0: 97aa 193c f75e 313d 0e10 1abd 33c0 30bc
000001b0: edba 53bc 7653 3ebd 3d26 c5bd 4219 213d
000001c0: a4a6 94bc ac5a c9bd ce6f 243c 1044 333b
000001d0: 98e1 70bd 8b21 cd3d 5726 f83d eccd ba3e
000001e0: f969 2bbc b5ed 16bd ca7b d43e aefd 3f3d
000001f0: 5b1b 26bd ba44 313b 5773 69ba dc07 883d
00000200: 1828 843d d95c c93c 9a68 a1bd 2fe5 703c
00000210: c065 85bc 7f0f 003e fcaf a43e 03b5 603d
00000220: ab53 d3bb 3f53 0e3d c8cb 0b3e ab7e 94bd
00000230: db88 043e 835a 8dbd e3e6 81bc 2540 8a3d
00000240: 92e0 48bd 6c57 d23e 9f60 293d 2050 1bbc
00000250: 2834 09bc fe0f 3b3d 9bfd 553d 77ec 1d3d
00000260: 311d c73d 4791 9cbb f39f aabc ea8e 9ebc
00000270: 596d bc3c 2d23 5b3d 915d abbd 241c 9ebc
00000280: e7cc a83d f741 093c ac7e efba f8f3 2f3d
00000290: a84a 5dbc a181 e53d 75c7 5abd acd1 323e
000002a0: 4f01 98bd 7c4f 9b3d da2b a93d 07df d5bd
000002b0: 549a f13b 484d 43bd ecef 533d 608d 9bbc
000002c0: e90b 94be f696 263d 5cec 543d 8189 17bc
000002d0: 677d 68bd 3190 223d 7c01 2ebd cef0 563a
000002e0: 75c9 a63c 9015 25bd 6872 8c3d 14a9 8d3e
000002f0: 9476 903d 7d83 cbbd ab52 fdbc 070e 773c
00000300: c314 fbbd 4818 103b 6e87 a8bc ada7 2ebd
00000310: 5fa2 3b3d d93e e4bd 7591 b33c aa89 c5bc
00000320: 3250 043d d229 253d 93d8 59bc acf7 193b
00000330: 1876 b53c 839b e83d face 80bc 4898 5dbe
00000340: 3847 283d 5935 123e 3924 19bd 0aa1 89bd
00000350: 6d0c 083e 1251 f93b c522 053e 70a2 54bd
00000360: 6c3a f03a 9ee6 b33c 4636 63bd e418 a73c
00000370: d479 a23d 01cd b4bc e0f6 3c3d af07 053c
00000380: 7137 db3d 503e b03c 0aea a5bd 4743 d53d
00000390: 5726 023d d519 8a3d 47ff 0a3e 1854 cfbc
000003a0: 8dcc a0bd 2d5a e0bc 10b7 84bd 5491 5fbc
000003b0: 7367 973b 200c 90bd afa8 343c d70f 183c
000003c0: 0852 673e 9739 37bd f4cc 9c3c 5b38 eebc
000003d0: d007 363d 843b 75bd a3ce 45bd 0545 6b3d
000003e0: f7d1 0fbd f739 123e 393a abbc 8da2 bcbc
000003f0: 809c 3cbb 9959 1f3d d656 6f3d 75db 6fbd
0.08483973 0.15925214 0.26900002 -0.095408015 -0.056896772 0.015736721 0.0048137335 0.053953007
0.26072747 -0.07407107 0.0037820507 0.024559492 -0.006077242 -0.05725613 0.019889817 -0.039184015
0.11941794 0.021875108 0.055916604 -0.0579641 0.04582894 -0.28641734 -0.0020511919 -0.05920309
0.01908639 -0.39931718 0.20464519 -0.20947304 -0.032312546 0.40196157 0.015665203 -0.039918877
0.022697723 -0.070413135 0.57106537 0.22534539 0.021625388 -0.04454686 -0.017283648 0.03142517
-0.046007674 0.09640773 0.15130085 0.11101804 0.06505192 0.26365638 -0.032574605 -0.062247418
0.024816426 0.050237544 -0.00980044 0.018358663 -0.043376025 0.035543695 -0.004093594 0.042874318
-0.03196622 0.060360096 0.1968645 -0.07268026 0.038796835 0.0018715248 -0.08766894 -0.016082056
-0.052804433 -0.067282 0.023791317 -0.04098083 -0.006909715 -0.04375521 0.07351968 0.027262617
0.038733568 -0.0074670347 0.028031688 0.052589722 0.05413622 0.17354067 0.02567822 0.038583647
0.030063309 -0.3612209 0.029582748 0.11837778 -0.016434923 -0.013894403 -0.026455812 -0.03605397
0.0051321173 0.053609777 0.026466832 0.012368306 0.041691918 0.03765797 -0.024630703 -0.09212241
0.08534154 0.0024238466 -0.019542163 0.06714424 0.28295442 0.055422664 0.013326637 -0.033326734
0.009379051 0.043303456 -0.037612967 -0.010788011 -0.012922985 -0.046466313 -0.09626434 0.03933073
-0.018145867 -0.098317474 0.010036422 0.00273538 -0.058808893 0.100161634 0.12116688 0.3648523
-0.010462278 -0.03684779 0.41500694 0.046872787 -0.040553432 0.002704902 -0.00089054316 0.06642124
0.0645296 0.024580406 -0.07881279 0.014703079 -0.01628387 0.12505911 0.32165515 0.054860126
-0.006449183 0.03474736 0.13651955 -0.072507225 0.12942831 -0.06902029 -0.015857166 0.06750516
-0.049042292 0.41082323 0.04135191 -0.0094795525 -0.008374251 0.04566955 0.05224381 0.03855559
0.09722365 -0.0047780606 -0.020828223 -0.019355256 0.02300136 0.053500343 -0.08367456 -0.019300528
0.08242207 0.008377544 -0.0018272004 0.042957276 -0.013506569 0.112063654 -0.053412873 0.17462796
-0.074221246 0.0758352 0.08260317 -0.1044293 0.0073731337 -0.047681123 0.05174248 -0.018988311
-0.28915337 0.04067131 0.051983222 -0.009249092 -0.056760218 0.039688293 -0.042481884 0.0008199335
0.020359734 -0.040303767 0.06857759 0.2766806 0.07053867 -0.09937189 -0.030923208 0.015079028
-0.12259819 0.002198713 -0.02057239 -0.042640377 0.045809146 -0.111448 0.021919945 -0.024113495
0.032303043 0.040323086 -0.013296264 0.0023493571 0.022151038 0.113577865 -0.015723694 -0.21640122
0.041083544 0.14278163 -0.03738806 -0.06720169 0.1328599 0.0076085413 0.13001545 -0.051912725
0.0018327958 0.021960553 -0.05547168 0.020397611 0.07933393 -0.02207041 0.046133876 0.008119508
0.10703934 0.021514088 -0.0810128 0.10413223 0.031774845 0.06743208 0.13573943 -0.025308654
-0.07851515 -0.02738675 -0.06480229 -0.013645489 0.0046204864 -0.07033563 0.011026545 0.00928112
0.22589886 -0.044732656 0.019140698 -0.029079607 0.044441044 -0.05987121 -0.048292767 0.05743887
-0.035112347 0.14279924 -0.020901786 -0.023026729 -0.0028779805 0.038903806 0.058432423 -0.0585589

fc3.weight f4 [18, 256]
00000000: d29a a2bd bd50 aebc 72c9 94bd d16a 8fbc
00000010: 09a5 383c c637 853c e4ff aabc 2ac8 e6bc
00000020: c38f 633d 385c a7bc c56b 72bc 284f 7a3c
00000030: 0abe c4bb b8c4 ff3b f35e 353d 92e5 1fbc
00000040: f4a4 5fbc 472c 60bd 4fb2 48bd 04d8 2d3c
00000050: 183c d43c 7fca 73bc eb37 8a3c 3e3a 7cbd
00000060: 9ab8 d4bc e6a6 9ebc 4e84 0b3c 0068 ecbb
00000070: 48f7 043d 9e44 a43d fffc 7c3c c6ed af3c
00000080: 2892 9bbb 4b3a b1bb 84ee 493d 1fe3 f33c
00000090: 7e94 1f3b bb53 303c 8567 0e3d 0c3c 27bd
000000a0: a694 8c3c c0f5 72bc c03b aabc 9430 aa3c
000000b0: abbb c2bc b953 ae3c 0620 8fbc fe42 45bb
000000c0: 7a79 06bc 173f 173d b383 b43c 4cef 8dbc
000000d0: f48a 3c3d 48c8 9e3b 2125 573d dd77 ba3d
000000e0: 60e7 6e3d d407 063d 476c 95bd 6e7b d5bc
000000f0: e81b 273d 1233 9dbd e191 a13c 945c e33b
00000100: 978b b3bc 10e6 b2bd 4e11 a13c 66f6 783c
00000110: ac92 013d 39b8 bdbd 1f65 683d fc5f f33c
00000120: 82ef 393d 14e4 cb3b 7026 0f3c b4b0 a1bc
00000130: 1796 09bd 44ec 34bd 3c7b 823a 49ed c1bb
00000140: a678 a4bc ac3a d3bc be1d 80bb dc62 3f3d
00000150: 5b16 643c 3b12 033c 6bb0 f0bc 5994 bf3c
00000160: 728a edbc 7c3a b73c 08cd 39bc cef5 6fbd
00000170: 4354 c1bc 3f70 a4bc 8c45 d0bb e043 6a3d
00000180: 639e 3cba be1c 6c3b cc05 96bc 1342 1cbc
00000190: 9a94 d9bd 8936 96bc 0a74 35bd 6092 fb3c
000001a0: 1639 b13c bba6 a7bc ee8a 5cbc 977c edbc
000001b0: e0bd 16bc d17e d9bb 022d 123b 13f1 ffbb
000001c0: 1f4c c23a 8634 87bc 6330 5e3d 58dd cd38
000001d0: 3b3b 023d 76c2 76bc aa8b 053d 9923 b43c
000001e0: 56e6 fa3a 4db9 d0bc 8a98 b83c e8fc 0e3d
000001f0: 5228 8d3c 26b5 123d 7d54 033c f38e 0f3c
00000200: d669 c9bb 1ced 463d 7862 833c cad9 ecbc
00000210: da74 6abd 00a9 c83c 145c be3d b8f7 e83b
00000220: 0245 cebc 574f 8e3d 4b72 46bd e0f6 8d3d
00000230: f122 4c3c 692a 363c 1ab5 673c 3170 cbbb
00000240: 5e9a 4f3d 77ee da3c 03db ffbc c659 56bd
00000250: 0618 1ebd 3cac e1bd facd 273d 1e29 043d
00000260: f562 1c3c 4a04 3c3d cd2f bb3b 634e 403c
00000270: d1ec 0c3d 62af 0b3d 864a dcbd 94bd 233d
00000280: ca3b 77bc 6853 94bc 7069 fa3b a208 85bc
00000290: 92a6 d4bc 20e9 3e3d fc53 e33b 8783 00bd
000002a0: d7b7 e03b f3da 2cbe 2d50 6cbd 4762 f33b
000002b0: 13bc 1cbd 5aa5 d13b c034 4abc 5adc 8e3c
000002c0: 2640 3bbc 2fb2 af3b c6fc 99bb c48e 24bc
000002d0: ab92 1c3d 94e6 843c 0332 313d 1b1c 31bd
000002e0: 42d7 c5bc 75c4 31bd dee2 eebc 9276 9cbc
000002f0: ecc2 5e3c eeee 29bd d894 803d 78de 21bc
00000300: 5a11 05bc 3c5e 083d fa8b 3dba 34e1 fb3b
00000310: fb02 4e3c 18cb 9ebc 27aa 6f3d f41b aebc
00000320: 2eb1 41bc 7f02 32bd 7d83 0a3d 1f69 8cbc
00000330: 4d23 04bd dd18 99bd e9a8 253c 9967 31bd
00000340: 3ca7 033d f56f 34bc 87fc 383b b19f 03bc
00000350: 1e3b 62bd d453 0b3b f2b9 9dbc f9da 2bbb
00000360: a8b8 d43c 8398 833c e23b 023d 1c12 09bd
00000370: 7757 af3a 54a1 393d 45c8 033c 6da7 debc
00000380: b153 ba3c d3e6 b83c c690 563c ea68 38bd
00000390: 0e32 2abd 9673 073d 263e 3bbd c842 cdbb
000003a0: bf21 cbbc ebd4 963c 546f 2abd 95f3 5cbd
000003b0: 1b0a 673d 7cba 21bc fe68 823d d1d8 863d
000003c0: d544 fabb 5206 44bd e10a 853c 9747 f13c
000003d0: f119 9dbc 0db7 af3c 5a3b 51bc e466 dbb9
000003e0: 4b85 86bc 879b 31bd 8a7e ccbc 5157 c33d
000003f0: e863 353c 9730 a23d 7d15 443d 9e3f b93c
-0.07939686 -0.021278733 -0.07264985 -0.017506989 0.011269816 0.016261946 -0.020873971 -0.028171618
0.055557024 -0.020429716 -0.014796202 0.015277661 -0.0060040997 0.007805433 0.044280004 -0.009759324
-0.013650168 -0.054729726 -0.048998173 0.010610584 0.025907561 -0.014879822 0.016872367 -0.06157898
-0.025966931 -0.019366693 0.008515431 -0.007214546 0.03246239 0.080209 0.015441178 0.021475684
-0.004747648 -0.0054085604 0.04929973 0.029771386 0.0024349983 0.01076215 0.034766693 -0.04082875
0.017160725 -0.014829099 -0.020780444 0.020775117 -0.023771128 0.021280156 -0.017471325 -0.0030099745
-0.008207673 0.0369254 0.022035455 -0.01732602 0.046030954 0.0048456527 0.052525643 0.09104893
0.058326125 0.03272231 -0.07296043 -0.026059832 0.040798098 -0.076757565 0.01972288 0.0069385264
-0.021917148 -0.08735287 0.019661572 0.015195465 0.031634018 -0.09263653 0.05673706 0.029708855
0.045394428 0.0062222574 0.008737192 -0.019737579 -0.033590402 -0.044170633 0.000995494 -0.005918179
-0.02007706 -0.025784813 -0.0039097955 0.04672514 0.013921346 0.007999952 -0.029380998 0.023386167
-0.02899668 0.022366755 -0.011340387 -0.058584027 -0.02359975 -0.020073054 -0.006355947 0.057193637
-0.00071952323 0.0036027874 -0.018313311 -0.009537238 -0.106240466 -0.018336551 -0.044300117 0.030709445
0.021633666 -0.020465245 -0.013460858 -0.028990073 -0.009200543 -0.006637432 0.0022304659 -0.0078107207
0.0014823711 -0.016504537 0.054245364 9.81639e-05 0.031794768 -0.015061012 0.032603897 0.02198963
0.0019142132 -0.025478983 0.022533674 0.03490916 0.01723114 0.035817288 0.008015749 0.008762109
-0.00614665 0.04856597 0.016038164 -0.028912444 -0.057240345 0.024494648 0.09294906 0.0071096085
-0.02517939 0.069487266 -0.048448842 0.06931853 0.012459503 0.01111851 0.014142299 -0.0062084426
0.050684325 0.026725037 -0.031232363 -0.05233171 -0.03859713 -0.11019179 0.04096792 0.032265775
0.009545078 0.045902528 0.0057124854 0.011737439 0.034405533 0.034102805 -0.10756402 0.039975718
-0.015089938 -0.018106177 0.0076419637 -0.016239468 -0.025958333 0.046609044 0.006937502 -0.031375434
0.006857853 -0.16880397 -0.05769365 0.007427487 -0.0382653 0.0063978853 -0.012341678 0.017439056
-0.011428868 0.0053618173 -0.0046993224 -0.010043804 0.03822581 0.01622323 0.043260586 -0.043239694
-0.024150494 -0.043400247 -0.029160913 -0.019099507 0.013596278 -0.041487627 0.0627839 -0.009879701
-0.008121813 0.033292994 -0.0007230636 0.0076867584 0.012573953 -0.019383952 0.05851188 -0.021253563
-0.011822028 -0.04345941 0.033816803 -0.01713997 -0.032260228 -0.074754454 0.010111072 -0.04331169
0.03214191 -0.011013021 0.002822669 -0.008033679 -0.05523216 0.0021259682 -0.019253705 -0.0026223047
0.025966957 0.016063934 0.03179539 -0.033464536 0.0013377507 0.04531987 0.008043353 -0.027179444
0.022744985 0.022571003 0.01309604 -0.04502193 -0.041551642 0.033069216 -0.045713566 -0.0062640645
-0.024796365 0.018412074 -0.041610077 -0.053943235 0.05640612 -0.0098711215 0.06367682 0.06584323
-0.0076376 -0.04785759 0.016240539 0.029453082 -0.019177409 0.02144959 -0.012770498 -0.00041847595
-0.01642098 -0.043361213 -0.024962682 0.09538139 0.011071183 0.07919424 0.047872055 0.022613343

fc3.bias f4 [18]
00000000: 93b3 c43e 4d82 9a3e c1de dc3e fc07 d73e
00000010: 85da b53e b993 063f ed09 be3e 19ac 0b3f
00000020: 84de ed3e 7360 ff3e abd3 493e ab69 763e
00000030: 4cd0 aa3e 23dc a83e bba8 8c3e 18fb b93e
00000040: ff84 903e 8656 af3e
0.38418254 0.30177537 0.43138698 0.4199828 0.3551828 0.52569157 0.37116948 0.54559475
0.46458828 0.49878272 0.19709651 0.24063747 0.33362043 0.3298045 0.2747248 0.36324382
0.28226468 0.342457
